checkpoint.pth (torch, 64175 bytes, 8 tensors)

fc1.weight f4 [128, 37]
00000000: 5352 d6bc 1941 453d 8ff1 2bbe 88ce 75be
00000010: 7fae 1cbd f43b 793e a2ea 81bc 4ce7 12be
00000020: a59f 2e3e 3dbe fc3d 194b 3d3c b4d9 513e
00000030: 3bdc c23b 5056 50bc ad44 6b3d a86c aabd
00000040: e84e a63d b77e 303b 0997 15be c013 a93c
00000050: 1fa7 1c3d 50c8 10bd 839c 903d fa09 08bd
00000060: 191f a4bb 2300 f03d 68c3 a0bd f73e 47be
00000070: 5f93 093d 8e06 bdbd 46ce 2c3c 109b 723e
00000080: 3977 9cbd d576 05be dfca aebd e50f 693d
00000090: cc10 e53b 38a5 5bbd 7ee1 0ebd b38f cebc
000000a0: fcf1 143c ebd0 893e bbda 143e dd4b e7be
000000b0: c4ac debd 7e25 36bf 9b48 b0bf eee1 c9bd
000000c0: a178 5cbd 2246 133e b308 ecbb 78cd ffbc
000000d0: 8d7e f03c 0780 8f3d 12f9 2cbe 9901 07be
000000e0: 9257 203d 6f44 233d 4b36 d43c d64e bf3c
000000f0: 002a a2bd 814c 98bc 82df f7bc 1dcd 173e
00000100: 8771 1e3e ba8e 0b3d c93a 0cbc 00f5 283c
00000110: 6c84 063e e9b9 da3d 3d50 8f3e baac 9d3c
00000120: 9df8 1a3c 5829 c63c 04d3 e03b 84f7 363d
00000130: 3e76 9c3c 9b24 af3d 9da7 29bd c9bc e7bb
00000140: dcf5 b43d 030e a53d ade4 7c3d f1d9 98b9
00000150: cac7 123e 1015 78bd addc 503d 9ae7 623d
00000160: d9b8 2bbe 8a7e 523d 0409 f73c 61a0 fbbc
00000170: 0d2c 653d e748 013e 9982 a5bb bc93 113c
00000180: de95 c5bd cdff 563e 9136 483e 51a0 413d
00000190: 4974 a33d 021c ba3d 22aa a63d ebdb 34bc
000001a0: fb31 7f3e dc5e 39be 6714 dcbe c5c6 8bbe
000001b0: ac53 d6bf 9cb5 74bc d10b 9d3b 706d a33d
000001c0: bbc3 f03d 5440 88bd 79bc 623d f924 533d
000001d0: 5939 7dbd 51be 323e 2254 ff3c 2534 26be
000001e0: d3df c1be a11e bf3d 3149 00bd ac5b dc3d
000001f0: 98c1 e63d 73ed f6bd 5202 49bd 6e29 aa3d
00000200: bd52 83bd a1e6 d6bd 5523 323c be25 c13d
00000210: c215 a2bb 7f23 74bd 56b9 463e 4fe8 3a3e
00000220: 3c6b fa3d 3cb3 02bd f95b 3a3d 1463 ae3d
00000230: 24e9 013e 8b11 49be a1bd c53d 327b 563e
00000240: 2875 c73e 1cea f93e 801c 783c 1f97 fc3c
00000250: 6992 373e b42d cabd db15 ec3d 2d75 cf3d
00000260: e059 bdbc f5da f1bd c836 99bd bc0d 3b3e
00000270: b26c 253e 2e7d 283d 11a3 0a3e 932b 693c
00000280: b4fe 1cbf 367c 96be 9ad7 603e ceae 9c3d
00000290: c227 073e 2988 15be f127 a6be 633b 8b3c
000002a0: d530 5cbe 5dff a6bc af9c 573e ac3b d5bd
000002b0: 58e8 00bf 6445 e338 7293 b7bd 7c0f 87bb
000002c0: be46 9cbd 2745 afbe a8f0 d33d 5dad 823e
000002d0: 8744 01bf f123 663d 7141 ac3d 0823 623d
000002e0: 9536 09bd 5543 c0bc b9f4 5d3d cfce f2bd
000002f0: cab6 27be 5569 ecbd 003d d83d 27f0 97bd
00000300: 68c9 ef3d d2a6 ae3b afd2 813e 878a ddbd
00000310: 6045 afbc 0947 733d 2d8d 863b 14db 91b9
00000320: bbb7 64bd 7671 4e3e 9777 02bd 1a9b 6abd
00000330: a2e3 20be 2ec0 3abd ec11 843e cff9 5b3d
00000340: 2ddd 13be 0465 60bf 1b2e 413e cb28 5f3e
00000350: e37c 333c bcbf 04bd e0bb 3fbf a63e d2bd
00000360: bc57 d53d 70e7 7abd 09c6 373e ac7f bebd
00000370: 264f 3b3c aff5 773c 4cb2 a6bb 6e91 4a3d
00000380: 620b 8e3c 6961 ae3d 8903 083e 18c9 9bbd
00000390: 03b1 53bd 6d60 613c dc28 223d e234 c43d
000003a0: 9c1e f03b eed3 8b3d f332 253d 2528 343d
000003b0: 3c7e 473d 3e21 c33e a99c 09bf d9d4 00bf
000003c0: 5393 1dbf b964 14c0 f9de 23bd 1387 453d
000003d0: 40ef 413d e887 0d3c 718f 5d3c 5bf9 083e
000003e0: 92f4 373e d66c 363e 1b60 513e 910f 803c
000003f0: 251f 0a3d 1fbc ef3d b3be 8d3d 54f4 fe3d
-0.026162302 0.048157785 -0.16791366 -0.24004567 -0.03825235 0.24339277 -0.015858952 -0.14346045
0.17053087 0.123409726 0.011553549 0.20493203 0.0059466637 -0.012715891 0.05743854 -0.08321506
0.08120519 0.0026930997 -0.14608397 0.0206393 0.038245317 -0.035347283 0.07061102 -0.03321264
-0.00500859 0.11718776 -0.07849771 -0.19457613 0.03358781 -0.09229766 0.010547226 0.23691964
-0.076399274 -0.13033612 -0.08534788 0.056899924 0.0069905277 -0.05362436 -0.034883015 -0.025215006
0.009090897 0.26917204 0.14536564 -0.45175067 -0.10872796 -0.7115096 -1.3772157 -0.09857546
-0.05382598 0.14382222 -0.0072031855 -0.031225905 0.02935722 0.07006841 -0.16891888 -0.13184203
0.039146014 0.039860185 0.025904795 0.023353022 -0.07918167 -0.018591167 -0.030257944 0.14824338
0.15472995 0.03407166 -0.008558937 0.010312319 0.13136452 0.10679991 0.27990904 0.019247402
0.009458688 0.024189636 0.0068610925 0.044669643 0.019099351 0.08551904 -0.041419614 -0.0070720655
0.088359565 0.08059313 0.06174152 -0.00029154078 0.14334026 -0.06056696 0.050991703 0.055396654
-0.16769733 0.05139021 0.030155666 -0.030716123 0.055950213 0.12625466 -0.005050969 0.00888532
-0.096477255 0.20996018 0.19552065 0.04727203 0.07981164 0.09087373 0.08137919 -0.011038761
0.2492141 -0.18102592 -0.42984316 -0.27300087 -1.6744285 -0.014935877 0.0047926684 0.07979858
0.117560826 -0.066528946 0.055355523 0.05154893 -0.06182227 0.17455412 0.031168047 -0.16230829
-0.37866077 0.09332014 -0.0313198 0.107596725 0.11267394 -0.120570086 -0.04907448 0.08308683
-0.064122654 -0.10493208 0.010872682 0.09431027 -0.0049464414 -0.059604164 0.19406638 0.18252681
0.122274846 -0.031909212 0.04549787 0.085149914 0.12686592 -0.19635598 0.096553095 0.20945433
0.3895657 0.48811424 0.015143514 0.030833779 0.17926945 -0.098719984 0.11527606 0.101297714
-0.023114145 -0.11809341 -0.07481152 0.18266958 0.16154745 0.041135006 0.13538767 0.01423158
-0.61326146 -0.2939164 0.21957245 0.07650529 0.1319876 -0.14602722 -0.32452348 0.016996091
-0.21503003 -0.020385439 0.21055864 -0.10411772 -0.5035453 0.000108371285 -0.0896367 -0.004121719
-0.076306805 -0.34232447 0.10348636 0.2552289 -0.5049519 0.05618662 0.084109195 0.05520919
-0.03349932 -0.023469606 0.054188464 -0.11855852 -0.16378322 -0.11543528 0.1055851 -0.07418852
0.11708337 0.005329945 0.2535605 -0.108174376 -0.021395385 0.059393916 0.004106185 -0.0002781978
-0.05583928 0.2016047 -0.03185233 -0.057276823 -0.15711835 -0.045593433 0.25794923 0.053705033
-0.1443984 -0.8765414 0.18865244 0.21792905 0.010955068 -0.032409415 -0.7489605 -0.102658555
0.10417125 -0.061255872 0.17946638 -0.09301695 0.011432445 0.015134259 -0.0050871726 0.0494551
0.017339412 0.08514673 0.13282599 -0.07606715 -0.051682483 0.0137559 0.039589748 0.09580399
0.0073278677 0.06827532 0.040331792 0.043983597 0.04870437 0.381113 -0.5375467 -0.5032478
-0.61552924 -2.3186476 -0.040007565 0.04822452 0.047347307 0.00863836 0.013522969 0.13376372
0.1796439 0.17814955 0.20446818 0.015632423 0.033721108 0.11705803 0.069211386 0.12448946

fc1.bias f4 [128]
00000000: 51b1 673d c34f d7bd 0048 0c3e 41e0 463e
00000010: cd42 3abe 8895 2b3d 5b73 bebd 8725 0c3d
00000020: f0c1 f9bd e6fb 243e 5d5d 923d 6470 0cbe
00000030: 5109 26be 23f8 40bd b762 963c e1be c5bd
00000040: da9a 17bd 1f66 8bbd 6c5a fbbd 34c6 f6bd
00000050: a58e a4bd d196 4d3d 61e3 293d f6da f5bd
00000060: ba42 a93d 5617 383d 9135 2d3e 0a26 13bd
00000070: 3290 bc3d 6646 b23d 932d b63c 4b81 da3c
00000080: c940 1d3e c9f7 9f3d f60b ddbd 7958 903d
00000090: bb8b 053e e36a 083e 68d8 86bd 2601 7f3c
000000a0: 7c47 21be 1c1d 86bd 7d8a f1bd aed5 383e
000000b0: ce30 97be 3da6 7cbd c1b2 d3bd 2a00 9bbd
000000c0: 7feb dabd d9d6 4dbd 87f2 b83d c55e f43d
000000d0: 7597 92bd 7038 e1bd f1dc 3a3c 56c6 b6bd
000000e0: cc2c 703a a49e b6bd b7cc 30be a0bf e53d
000000f0: 1197 a13b bd9f 6abc c2c6 493e 2979 3ebd
00000100: 4ae8 16be fda7 303d d7c4 1c3e ba77 ce3d
00000110: c869 613e 06b1 5c3a 442c 1f3c 594e 8c3d
00000120: 4c25 febc fdf9 4f3d cd77 d6bd dbff 663d
00000130: 77aa 743d 4a62 6abe 186b 733e 4424 ca3d
00000140: e819 cebc 0b2f 59bd 9d85 1dbe 115c 92bc
00000150: 7699 0b3d b967 c7bd 6e82 6a3e a4d6 863d
00000160: 0796 4cbe 4305 25bd 66af dc3d 7a20 6e3d
00000170: bcd9 9f3d b525 fdbd 8acf 7bbd d3d5 923d
00000180: 83f5 9f3c 1eb2 9f3d 03b7 d9bd 72c1 093d
00000190: 3427 313e 16bd 2ebe 4eb8 89bc b504 b83d
000001a0: 8fd4 fabd 22f5 12bd 7d3b c9bd 7dd7 8b3c
000001b0: 1423 1b3c 0acc 753d 76e4 2e3e 2ac8 87bd
000001c0: 5d4b 883d 7756 c1bd 76b4 50be 0af2 1a3e
000001d0: 87d8 803e 107f a33d 6beb 1cbe 3864 a5bd
000001e0: 5068 aa3d f968 88be 4fb5 323c e783 febd
000001f0: 0b80 913d a653 333e 7ace 8dbe 3533 77bc
0.056565586 -0.1051326 0.13699341 0.19421484 -0.18189545 0.04189065 -0.09299346 0.034215476
-0.12195194 0.16111717 0.07146714 -0.13714749 -0.16214491 -0.04711164 0.018357618 -0.09655548
-0.037012912 -0.068065874 -0.12273106 -0.12049523 -0.0803502 0.050192658 0.04147661 -0.12004654
0.0826468 0.04494413 0.16914965 -0.03592495 0.092071906 0.08704834 0.022238528 0.02667298
0.15356745 0.07810933 -0.10793297 0.07048125 0.13041584 0.13322024 -0.06584245 0.015564239
-0.15749925 -0.06548521 -0.11793993 0.18050262 -0.29529423 -0.061681975 -0.10336829 -0.07568391
-0.106894486 -0.050253723 0.090306334 0.11932138 -0.071577944 -0.10997093 0.011405216 -0.08924548
0.00091619487 -0.08916977 -0.17265593 0.1121819 0.0049313386 -0.014320311 0.19704726 -0.046502266
-0.14737049 0.043128956 0.15309463 0.1008143 0.22013009 0.00084187125 0.009715144 0.06850881
-0.031023644 0.050775517 -0.10472069 0.056396347 0.05973288 -0.22889057 0.23771322 0.09870198
-0.025158837 -0.05302338 -0.15383 -0.017866166 0.0340819 -0.097365804 0.22901317 0.06583908
-0.19979106 -0.04028822 0.10775642 0.05813644 0.078052014 -0.12360708 -0.06147722 0.0716969
0.019526249 0.07797645 -0.1063061 0.03363175 0.17300111 -0.17064318 -0.016811516 0.08985273
-0.122475736 -0.035878308 -0.098257996 0.017070526 0.0094688125 0.06000904 0.17079338 -0.06629975
0.066549994 -0.0944032 -0.2038134 0.15131393 0.25165197 0.079832196 -0.1532418 -0.08075756
0.08320677 -0.26642588 0.010907485 -0.12427502 0.071045004 0.17512378 -0.27696592 -0.015087892

fc2.weight f4 [64, 128]
00000000: c8d6 b23d da91 bcbe 6d45 ab3e 71a6 4dbe
00000010: e29b a6bb 7c3b b5bc fc8a 33be d49c 123d
00000020: 9184 86bd b1ab 0abe 1ced 3ebb e461 38bd
00000030: f391 2b3c 2904 d6bc 3830 03be a262 74bd
00000040: 9447 f93b 3144 4e3e 2a73 9a3d a2c7 2abe
00000050: 5e58 e43d 5af3 363c fdad 483d 58db da3d
00000060: 810a cebd eb11 4abf 6f10 94bd 2c34 ab3c
00000070: de1a c1bc b14a 52bc 3acd c33d 2fe9 02be
00000080: 96ea 7fbd 1e33 b43c 6537 723e aabc cabd
00000090: a479 ce3d 9500 0d3f a80d 8abd 8d48 dcbc
000000a0: 6dcf c1bd 33cb c9bd 2c26 98bc 2edf 39be
000000b0: f45e c33d 4cb2 623d 7755 0dbe fd08 1a3e
000000c0: 7047 cbb7 8847 263c 1613 70bd d8f6 8abe
000000d0: cee7 aeba 53de 303d 4c35 3f3d b02e 9d3c
000000e0: 3266 f13d d8ef 56bd 489b 1f3c 170f f53d
000000f0: 1993 d4bd 47b3 493e a3b1 383e ae1f f63d
00000100: 8724 283d ba4f e83d 89da ec3d 881b 023d
00000110: 7ba0 08be 3b32 1dbd 345e e13c beb2 89bd
00000120: 092f 063c a76d c13c 8b05 39bd 8c98 873d
00000130: c7eb 843d 2fb3 3a3c d6c9 b13d 256a 0ebe
00000140: 9c6c b33d b570 96bd c757 f7bd 5fde a43d
00000150: fe99 42bd 246c 50bd d2ac 343c a6d5 423d
00000160: 48d8 13be c18f 89bd 1128 f0bb 8231 8b3c
00000170: 199d f0bd 41a5 b9bc f86e 90bd 175c 10bd
00000180: cbdb 053e 4006 efbd ab7c 76be 974f 4ebe
00000190: 2e8e c83e 571f acbd 8669 3cbd 6d2d e0bc
000001a0: 5e28 6bbe fe54 44be d0e2 86be fef2 2bbd
000001b0: 556c f3be edff 67bd 3878 c93c 03fa a33d
000001c0: 18f0 213d 835e 3ebe d9cc 3b3c 5afc 45bd
000001d0: c40c 4dbc fcbc 3abe f95b 773d 0610 21bd
000001e0: 49e7 81bd 90a5 97bd 281c ae3d 58e8 90bd
000001f0: 2147 0ebe 6fbd eb3b 2f97 3fbd dbf6 a7be
00000200: 9932 26be e331 b0bd 2c5b 21bd 1644 b3bd
00000210: 7b80 a4bd e3a2 94be 966a 6dbd 4398 633e
00000220: 0aa2 7b3e e826 a13e 7ac9 00bd f65b a0bd
00000230: d0b5 a63d ccad 423d ff5d b63a 747a c6bd
00000240: cf31 63be efce 923e 67cb 2e3e 6cbf 16be
00000250: dbf9 bebe 6a6e 76be 21d6 ec3d 04d5 85bd
00000260: 2f21 a63c 1098 96bd 006f b83d 5842 643c
00000270: dda7 05be 8b0e 0cbe 7d32 683e 8593 6c3d
00000280: 2f6e 723b 7176 443e 231b 9c3c d508 5d3e
00000290: adb1 85bc a827 a4bd 50d6 4c3e 5f31 07be
000002a0: b7bd 0fbe bff0 a73c 3ff0 8dbe 6262 863e
000002b0: 1523 e0be d4ff 873d 5f9f 97be a894 7a3e
000002c0: 9f04 debd a294 0f3d 705b 133b 4f37 4abe
000002d0: b968 a7be b33a f6bd 6528 5c3e a983 a4bc
000002e0: 547c 8fbd f8e7 dfbd c624 acbe c2e6 3a3e
000002f0: c089 a13a 265c 0d3d 48bc 57bd b4cc 5c3d
00000300: 6b38 07be a02d 513e c101 76bd a68e f1bc
00000310: a457 583e 80f7 3cbe db1f 8cbd 9e71 c73c
00000320: 4e0c 573e 8680 c7ba 3170 5ebe 8ce8 c8bd
00000330: 4624 753d c674 96be 9818 afbd 271f 87be
00000340: f9fa 2cbe 7913 bdbd b025 c9bd 12a8 1bbe
00000350: 0946 36be 2cd2 78bd 8a03 ccbb 8f34 903e
00000360: 15e8 723c 5dd7 fabd 4238 a3bd 1c44 fcbd
00000370: 4bd9 33be ea1a c6be 44bf 7abe a693 383d
00000380: d617 a8bd 8651 a73e c7ce 0dbe 444a 7e3d
00000390: 64a0 b2bc b409 2ebe 4c40 03be 4d62 d4bd
000003a0: 3346 a63e 0fc4 1c3e a2e1 b8be 2216 6e3d
000003b0: 4f43 c83d 41b6 fc3d ae90 75b8 2640 ce3d
000003c0: 0419 efbd 733a b7bd d9a3 66bd b858 a9bd
000003d0: a73e aa3c 1d5b 3bbd 523d 35be 0d9a 52bd
000003e0: 69f3 02bd cf00 063e 4c6a f9bd dbe9 84be
000003f0: 9d1e cd3d e3bf a8bc 32fa 4cbe ac64 e83d
0.087323725 -0.36830026 0.33451405 -0.20083024 -0.0050845006 -0.02212309 -0.17533487 0.035794094
-0.06568254 -0.13542058 -0.0029133027 -0.04501523 0.010471809 -0.02612503 -0.12811363 -0.059664376
0.0076074097 0.201432 0.07541497 -0.16677716 0.11149667 0.011166418 0.048994053 0.10686368
-0.10060597 -0.7893359 -0.07229697 0.0208989 -0.023572382 -0.012835191 0.09560628 -0.12784265
-0.062479578 0.02199703 0.23653944 -0.09899266 0.10081795 0.55079013 -0.06740886 -0.026890064
-0.094633915 -0.0985321 -0.01857289 -0.18151543 0.09539595 0.05534582 -0.13802134 0.15042491
-2.4232751e-05 0.01014889 -0.05861195 -0.27141452 -0.001334423 0.043180775 0.046681687 0.019187301
0.1178707 -0.052474827 0.009741612 0.11965769 -0.10379619 0.19697295 0.18036513 0.12017761
0.04105046 0.11343332 0.1156512 0.031764537 -0.13342468 -0.03837798 0.02751074 -0.067235455
0.008189925 0.023611857 -0.0451713 0.06620893 0.064902835 0.01139526 0.08681075 -0.13907678
0.0876095 -0.07345716 -0.12077289 0.080502264 -0.04751014 -0.05088438 0.011027532 0.047567032
-0.14437973 -0.06716872 -0.007328995 0.01699138 -0.11748714 -0.022661807 -0.070524156 -0.035244074
0.13072126 -0.11671114 -0.24070995 -0.20147549 0.39170974 -0.08404415 -0.045999072 -0.02736541
-0.22964618 -0.19173047 -0.2634492 -0.041979782 -0.47543588 -0.056640554 0.024593458 0.0800667
0.039535612 -0.18590741 0.011462414 -0.048336364 -0.012515251 -0.18236154 0.060390446 -0.03932192
-0.06342942 -0.074046254 0.08501464 -0.07075566 -0.13894321 0.007194213 -0.04677504 -0.32805523
-0.16230239 -0.08603265 -0.03939359 -0.08753221 -0.08032318 -0.29030523 -0.057962976 0.22226052
0.24573532 0.31474996 -0.031442143 -0.0783004 0.08140147 0.047529027 0.0013913511 -0.09691325
-0.22186969 0.28673503 0.1706978 -0.14721459 -0.373 -0.24065557 0.11564279 -0.0653477
0.020279495 -0.07353222 0.090055466 0.013931833 -0.13052316 -0.13677423 0.2267551 0.057757873
0.0036991944 0.19185807 0.019055909 0.215854 -0.016320074 -0.08015376 0.20003629 -0.13202427
-0.14037214 0.020500539 -0.27722356 0.26246935 -0.43776765 0.06640592 -0.29613778 0.2447077
-0.10840725 0.035053857 0.002248492 -0.19747661 -0.32697085 -0.12022915 0.21499784 -0.020082312
-0.070061356 -0.109329164 -0.33621806 0.1825209 0.0012324378 0.034511708 -0.052669793 0.053906158
-0.13205115 0.20427561 -0.060060266 -0.029486965 0.21127182 -0.18453789 -0.068420134 0.02434617
0.21000788 -0.0015220798 -0.21722485 -0.0980998 0.059849046 -0.29385966 -0.08549613 -0.26390955
-0.16892613 -0.0923223 -0.098216414 -0.15200832 -0.17800154 -0.06074731 -0.006226008 0.281651
0.0148258405 -0.122481085 -0.07969715 -0.12317678 -0.1756336 -0.3869241 -0.24487025 0.045062684
-0.08207671 0.32679385 -0.1384841 0.062082544 -0.021804996 -0.16995889 -0.12817496 -0.10370312
0.32475433 0.15309165 -0.36109644 0.058126576 0.09778463 0.1233945 -5.8547295e-05 0.10070829
-0.11674693 -0.08946695 -0.0563086 -0.08268875 0.020781828 -0.04574119 -0.17699173 -0.051416446
-0.031970415 0.13086246 -0.12178478 -0.25959668 0.10015605 -0.020599311 -0.20017317 0.11347327

fc2.bias f4 [64]
00000000: b4a9 32bd 2a08 e43c ee9b 18bc 0c67 b6bd
00000010: f107 67bd 264c 09bd b34f b1bd bf35 c13d
00000020: c4c3 bfbd 3e8f a3bd b0f0 033e 8062 573c
00000030: bc57 2c3e afd4 833d 5a72 62bd ce62 55bc
00000040: 8dd0 54bd bd77 8c3d 1168 b6bc f370 c73d
00000050: eede 063e be5f bb3c dc37 d73d c56b 493d
00000060: 745a 36bd d437 27be 708b 393e 8e9f c9bd
00000070: cf99 373e 76ff 153d 44a8 063e 27b3 863e
00000080: 5cd0 b5bb c249 6a3e dd12 a23d b5a3 293c
00000090: 3546 8abc 6707 58bd 615d fa3c 937c e33b
000000a0: beed 97bd cdab 643d 34ee ba3d 0760 293d
000000b0: 097c f73c 2ee6 5c3d eed7 413e 1e03 a23c
000000c0: 18da f43c 41ec 7c3e 10a7 31bd be1b 403d
000000d0: c1fc c9bd 3bf4 253d dc8c d83d ff89 d0bc
000000e0: aa4a 353c 7c40 0fbd c114 a63e 9479 07bd
000000f0: b7e7 493e 07cd cd3d 7e1d 963e cb3d 4dbd
-0.043618873 0.027835924 -0.00931452 -0.089063734 -0.056404058 -0.033519886 -0.086577795 0.094340794
-0.09363511 -0.07986306 0.12884784 0.013146043 0.16830343 0.064370506 -0.055284835 -0.013024045
-0.051956702 0.06858776 -0.02226642 0.0973834 0.13170978 0.022872802 0.10508701 0.049175043
-0.044519857 -0.1632989 0.18119597 -0.09844886 0.17929767 0.03662058 0.13150126 0.26308557
-0.00554852 0.22879699 0.07913754 0.010353972 -0.01687918 -0.052741434 0.030562105 0.0069423406
-0.074183926 0.055827904 0.09127465 0.041351344 0.030210512 0.053930454 0.18930027 0.019776877
0.029889151 0.24699499 -0.043372214 0.046901457 -0.09862662 0.04051612 0.10573742 -0.025456427
0.011065165 -0.034973606 0.3243771 -0.03307493 0.19717298 0.100488715 0.29319376 -0.05010776

fc3.weight f4 [32, 64]
00000000: daf0 863e c348 66be 7786 d1be 8f8a 84bd
00000010: 8882 4bbe a843 c0bd 10df 57bd f823 3b3b
00000020: 7972 c7bd 7499 3fbf cc9c d33d 2c64 893d
00000030: 2718 cf3d 0cee 2d3e c9c9 5e3d c315 3cbd
00000040: 02d4 4ebe 8256 aebc 842f be3d e80d b73d
00000050: 33c0 ba3d 69ba cbbc 9167 263e 3d6c bebb
00000060: b6ba 02bd 2af3 bfbd 07ea bf3d a6be abbd
00000070: b7e6 773e ac1d 803c 1a21 113e 9f2c 5d3e
00000080: 9109 22bd a598 0d3d 1154 503e b511 a23e
00000090: 7ff2 f03e 88ef 45be 4bfc 283e 71c5 b5be
000000a0: 1830 47bf 0466 b6bb a8f0 0c3e 9b82 5abe
000000b0: 4ec4 3ebe fa81 833e 450a 3b3e 5df2 753c
000000c0: e5b5 9c3d 07d6 303d 3cb9 01bd 317f 0fbe
000000d0: 8998 4cbd 18f7 41be d9e6 883e fb43 933e
000000e0: 4dd8 85be 324c d33e 4d42 443e 0000 623e
000000f0: af65 033e c13a a9bd 5c33 c33d 8d78 393d
00000100: 3361 f8bd 8370 c43d e054 713b 30b0 a5bd
00000110: f5d2 bf3c 7ce5 e2bd 2b25 503d 9c15 03bd
00000120: daba f9bd 3ae3 9abc 359c d1bd c80b f63c
00000130: 0670 bcbc 5a86 8e3d b77d ccbc 9069 a33d
00000140: 996b 963d de50 833d 3155 e3bd 9c7f 82bb
00000150: 1130 c1bd 5694 ac3b 8c9e adbd 55ff 8e3d
00000160: aec6 24bc 3397 1dbd c97c b9bd 27e8 e43d
00000170: 6b5a 373d b154 963b 0d84 d1bd 7c54 9dbd
00000180: db59 42bc 85b7 31bd 15e0 403d 5fdc 69bd
00000190: f734 993d 224c af3d 954a 7f3d fb34 9abc
000001a0: 9d5c f7bb 4d51 40bd 6006 28bd 876d 473d
000001b0: fe9d 4cba 3aeb c6bd 59aa 49be f223 103c
000001c0: 89bb eebd 63df 55bc 663a c3bc 53d6 86bd
000001d0: 39c6 80bd c1e8 db3d 5367 443d 6e36 68bc
000001e0: d619 cc3d 38c9 98bc e8b3 863d c651 083d
000001f0: 9c7f 0ebe 0309 333d ff4d 3cbd e961 48bd
00000200: b767 98bd b8fd 913d 87c2 eb39 c1ae be3d
00000210: 0704 afbd a9fd 9cbd 6f01 eebd 12db 9f3d
00000220: 4e09 bdbc 071c 153d e595 14be 8b95 29bc
00000230: 11a2 15be a689 84bd 9117 bdbd dba2 7cbc
00000240: 961f f6bc 2cb0 d8bd e362 5d3b 3ad6 fabd
00000250: 74bd 053d 708e 803d 4658 773c 9409 03be
00000260: a952 c83c 2e5c b43d 4b39 f2bc 3ac7 eb3d
00000270: 20d8 f0bd 0894 8a3b 71c4 a4bd b914 69bd
00000280: fe27 1c3d 9544 463a df70 89bd 97a1 7abd
00000290: cc6d e7bd 43af a6bd 4adf c43d 6d12 b7bc
000002a0: fe6a c63d d035 2c3d bda2 d3bc 8af6 e5bd
000002b0: ef8f 3abd 073d ed3d 1d46 53bd 421c eb3d
000002c0: 12d8 cabd 756a a63d f322 863d 9003 353d
000002d0: 6975 ddbd d1f1 d93d 09eb 04be 62e9 4bbc
000002e0: d563 6ebd cf58 de3d 1d13 adbd 7a6f aabd
000002f0: 91c0 bcbd 86a1 d8bd d161 43bd 6c6d 0abe
00000300: 28f1 cb3e 0bf7 533e 8afd bd3d 8bb1 52bd
00000310: 9e7f a2be bafd 24be 7abb c43d 7436 973d
00000320: 120f a63e f2b8 b63c 1598 a1bd 74c4 2abe
00000330: 562b 823d 3629 4fbe 0ff9 9bbe 929d 6abe
00000340: ee5d acbd 43e0 b9be 085f b8be ed9a 1a3d
00000350: af4e a0bd bcfd b0be 5fe9 0f3e d9f1 f4bd
00000360: 0082 713e 53ed a3bd f374 d6be b559 cb3e
00000370: e428 b23d 90e5 5bbd 93c5 a93d 6047 56bd
00000380: 1fb9 6f3d a7a1 98bd 14c6 193d 052b f53e
00000390: a877 2b3e da4c 11be 0d25 dabc 6074 babd
000003a0: 9472 bbbe b6e6 123d 8cdc aebe 2e06 46bd
000003b0: d4cd 48be 6897 673e f390 f93d 68a4 a03d
000003c0: 7b3d a0be e742 07be 0ae0 9dbe 5073 0ebe
000003d0: 24f4 62bd b4c8 6bbe 0f89 e53c c185 843d
000003e0: 5db3 063d 018c 173f a6f5 98bd cde3 e1be
000003f0: 8835 b63d 5a6b 14bb 999d 533d 0324 cc3d
0.2635563 -0.22488694 -0.409229 -0.064717405 -0.19874012 -0.093879044 -0.052702963 0.0028555375
-0.09738631 -0.74843526 0.10332641 0.067085594 0.101120286 0.16985339 0.054391656 -0.04591919
-0.20198062 -0.021281485 0.09286407 0.08938199 0.0911869 -0.02486916 0.16250445 -0.005811243
-0.031916343 -0.09372552 0.09370809 -0.08385973 0.24209104 0.015639149 0.14172783 0.21599053
-0.039559904 0.0345694 0.20344569 0.31654134 0.4706001 -0.19329655 0.16502492 -0.35502198
-0.7780776 -0.0055663604 0.13763678 -0.21338885 -0.18629572 0.25685102 0.18265636 0.015011397
0.07651881 0.043172862 -0.031670794 -0.14013363 -0.049950156 -0.18941915 0.26738623 0.28762802
-0.26141587 0.4126907 0.19165917 0.22070312 0.12831758 -0.082631595 0.095312804 0.04528098
-0.12127914 0.095917724 0.003682427 -0.08090246 0.023416022 -0.11078927 0.050816696 -0.03200303
-0.12193842 -0.018907178 -0.10234872 0.030034915 -0.023002636 0.06959219 -0.02496229 0.07979119
0.073447414 0.064119086 -0.11100233 -0.0039824974 -0.09432996 0.0052667065 -0.08477506 0.069822945
-0.010057135 -0.038474273 -0.09057004 0.11177092 0.044763964 0.0045877327 -0.10230265 -0.0768213
-0.0118622435 -0.04338791 0.0470887 -0.057094928 0.07480805 0.08559443 0.062326986 -0.018824091
-0.007548882 -0.046952534 -0.041021705 0.048688438 -0.0007805525 -0.09712835 -0.19693889 0.0087976325
-0.11656863 -0.013053748 -0.023831557 -0.06583848 -0.06287808 0.10737754 0.0479501 -0.014173133
0.09965865 -0.018650636 0.06577283 0.03328111 -0.13915867 0.043709766 -0.04597282 -0.0489215
-0.07441657 0.07128471 0.00044967627 0.093106754 -0.0854569 -0.07665569 -0.11621367 0.07805456
-0.023075726 0.036403682 -0.14510305 -0.010350595 -0.14612605 -0.06471567 -0.092330106 -0.015419687
-0.030044358 -0.10580477 0.0033780865 -0.12247892 0.03265138 0.06277168 0.01509673 -0.12796623
0.024453478 0.088066444 -0.029568335 0.11512609 -0.117599726 0.0042290725 -0.08045281 -0.05690453
0.038124077 0.000756332 -0.067109816 -0.06118926 -0.11300239 -0.08138897 0.096129015 -0.022347653
0.09688376 0.042043507 -0.025834436 -0.11228664 -0.045547422 0.11583906 -0.051580537 0.11479999
-0.099044934 0.08125774 0.06549635 0.04419285 -0.1081341 0.10641826 -0.12980284 -0.0124457795
-0.058200676 0.10856783 -0.08450911 -0.08322044 -0.092164166 -0.10577683 -0.047700707 -0.13518304
0.39832425 0.20699708 0.09276874 -0.05143885 -0.3173799 -0.16112414 0.09606071 0.07383433
0.32433373 0.022304986 -0.078903355 -0.16676503 0.06355922 -0.20230564 -0.30463454 -0.22911671
-0.08416353 -0.3630391 -0.36010003 0.037745405 -0.07827508 -0.34568584 0.14053868 -0.11960191
0.23584747 -0.080042504 -0.418861 0.3971688 0.086992055 -0.053685725 0.082896374 -0.052314162
0.058526155 -0.07452708 0.037542418 0.47884384 0.16744864 -0.14189473 -0.026628995 -0.09104228
-0.36610854 0.035864554 -0.3415264 -0.048345737 -0.19609767 0.2261635 0.1218585 0.07843858
-0.31296906 -0.13209115 -0.3083499 -0.13911176 -0.055408612 -0.23025781 0.028019456 0.06470824
0.032885898 0.59198004 -0.07468729 -0.4411911 0.08896929 -0.0022646994 0.05166397 0.09967806

fc3.bias f4 [32]
00000000: d165 b03e 7fb5 28be 739f cd3b aa49 503e
00000010: 7561 75bd da9e 3b3e 2d18 3a3e 9cfe a53d
00000020: 9108 09be 5bf8 59be 55cf 94bd dcb8 173d
00000030: 4ac9 dfbd b5de c03e f95f 3fbe b582 21bc
00000040: 2c71 56bc e78e 16bd 29c6 0d3d 19db 043d
00000050: ccc6 7e3d 91ae b73d 07ac ed3a 1d6d 453e
00000060: 2d01 8dbe 078a 37be 28ac d9bd 4d40 50bd
00000070: 8965 313d 37b3 bc3d 9831 42bd 6ebe 5d3e
0.3445268 -0.16475485 0.0062751113 0.203406 -0.059907395 0.18322316 0.18173285 0.081052035
-0.13382174 -0.21286146 -0.07266108 0.03704153 -0.10927065 0.37669912 -0.18688954 -0.009857823
-0.013088506 -0.036757376 0.03461281 0.03243551 0.062201306 0.08968843 0.0018132933 0.19279905
-0.2753996 -0.17923747 -0.10628539 -0.050842572 0.043309722 0.0921387 -0.047410578 0.21654674

fc4.weight f4 [4, 32]
00000000: 96e3 223e 8c24 4b3e 5fc4 e4bd 077a dc3e
00000010: cefa 1dbe 9a28 11bc 364b 963e ff35 4b3e
00000020: db19 a03e 9c8b 5fbe d00c 35be a8b5 ac3d
00000030: f015 22be 0a90 6d3e 857b 90be 9cb8 41be
00000040: 65a3 203e f831 813e e9a9 843d f001 80bc
00000050: 1367 b93e ee07 713e 5860 863e 6311 123e
00000060: 4da7 46be e39b 19be b2be 38bf c956 5cbb
00000070: 36c0 eebd 5586 953e 27ec dabd 2ece 8a3e
00000080: f202 823e c844 e9bc 249e 1ebe d763 b13e
00000090: 6814 bbbe 037e 353e ab69 693e d152 843d
000000a0: e0a8 8d3c f5ec 85be 0434 18be 43b4 8c3e
000000b0: be4e ab3d e13a 113e a1f6 043d 1725 37be
000000c0: 6f86 67bf 530b 0e3f 8dc3 ac3d 2ffd 433d
000000d0: ad9c da3e ad4d a33d 0e91 aa3e 2839 ac3e
000000e0: d477 f2bd d253 d8bd 0e90 39bd 1840 66bc
000000f0: 9fe9 e2bd 44df a03e a945 323e a4fc b33d
00000100: 13cc ab3e 7d7b d1bd 8fde 1a3c e19d 36bc
00000110: c9a1 12bd 72f4 123e 5521 2c3e 3af6 52bc
00000120: de49 e23e 1bb8 05be e94f d03d b758 123f
00000130: d794 0fbe c388 c73e 6b13 963e 60ea aabe
00000140: dd99 a0be ad94 b1be e59a 0e3f 7ff6 843e
00000150: efeb 34be cd85 823e 297d bd3e 4e4b a33d
00000160: 6c6c 543e 7559 5fbe 81d2 24bf a7ab cabd
00000170: 8450 59bd 0cb4 113e 0551 a5bd 5119 b73c
00000180: e4ae f1bc 9442 3fbd 6b56 f13d adda a63e
00000190: 348d 0fbf 2998 a03e 9831 953e 595e ed3d
000001a0: b4df 633f 2ae9 c6bd a9ff 303e 1478 ccbd
000001b0: 56c9 a23d 99af 8d3e 8d71 5fbf 12db 28be
000001c0: c0b7 dbbe 5b18 3a3e 761e a93e ff0c 26bd
000001d0: edbd 563e 8821 453e e8e9 bb3e be1b 66bd
000001e0: 9e52 94be 6bc5 363e 5f39 88be 225e 9b3d
000001f0: e6a8 aebd e43b 4d3c 32b8 a53e 6190 643e
0.1590713 0.1983816 -0.11170267 0.4306185 -0.15427706 -0.008859778 0.29354256 0.19844817
0.31269726 -0.218306 -0.17680669 0.08433086 -0.15828681 0.23199478 -0.28219238 -0.18918079
0.1568733 0.25233436 0.0647772 -0.015625924 0.36211452 0.23538181 0.2624538 0.14264445
-0.19399758 -0.15000872 -0.7216598 -0.0033621064 -0.11657755 0.2920405 -0.10689574 0.27110428
0.25392872 -0.02847518 -0.15490013 0.34646484 -0.36539006 0.17723851 0.22794215 0.064611085
0.01729244 -0.26157346 -0.14863592 0.2748128 0.08364628 0.14182617 0.032461766 -0.17885242
-0.90439504 0.5548603 0.08435736 0.047848877 0.4269766 0.079738 0.33313793 0.33637357
-0.11839262 -0.105628625 -0.045303397 -0.014053367 -0.11079716 0.31420338 0.17409386 0.08788422
0.33554134 -0.10228632 0.009452476 -0.01114604 -0.03579882 0.14351061 0.1680959 -0.012876088
0.4419698 -0.13058512 0.10171492 0.5716662 -0.14021622 0.38971528 0.2931169 -0.3338194
-0.31367388 -0.34683743 0.557051 0.25969312 -0.17668127 0.25492707 0.37009552 0.079733476
0.20744485 -0.21811469 -0.64383703 -0.09896021 -0.0530553 0.14228839 -0.08072094 0.022350939
-0.02950234 -0.046694353 0.11784061 0.3258871 -0.56074834 0.3136609 0.291394 0.11590261
0.8901322 -0.09712441 0.17285027 -0.099838406 0.07948558 0.27673033 -0.8728264 -0.16489819
-0.42913628 0.18173353 0.33031052 -0.040539738 0.20970888 0.19251072 0.36701894 -0.0561788
-0.28969282 0.17848746 -0.2660627 0.07586314 -0.085283086 0.012526486 0.32367092 0.22320701

fc4.bias f4 [4]
00000000: f17d c53e b85c 323e 88a1 183e 5ad6 d03e
0.38572648 0.17418182 0.1490537 0.40788537
