checkpoint.pth (torch, 64175 bytes, 8 tensors)

fc1.weight f4 [128, 37]
00000000: 1a57 5c3e ab1a 3e3e efe2 0bbe fe89 5dbf
00000010: e7a0 f4bf 4ab4 fa3e 68ec 99be c5af 28bf
00000020: 30d3 a2bd bcc8 343f 9d96 a4bd 745d f13d
00000030: 3e6b 193e eaa7 31bf 491d 383f 7e60 7ebf
00000040: 28d7 18be 27df 993e 7227 953c 66fb 313e
00000050: 9e3a 133e 3863 773e 0dd0 973c a519 7fbf
00000060: 9aa0 7f3d 78e9 d5be dbc9 07bf 4bc2 a13e
00000070: e6ec ce3e 8a7f 0abf b518 19bf bb4d ae3e
00000080: a84d e73d 593c 3e3e 83d7 94be ba9b 2cbd
00000090: 42de 4bbd 40e9 8cbe 90e6 f83e 2660 1b3e
000000a0: b04e 033f 28ea 94bf 38e1 da3d 883d 46be
000000b0: ba87 7cbe 5817 b53e fb6b 18bf 3e4f 33be
000000c0: ec8b 8ebf 67ef 1d3e 8477 083f 911b aa3e
000000d0: 977e 333f 2472 e93c 1d69 0abe 45ed 92bf
000000e0: 09a3 b6bd a404 9bbd adac f13d 732b 85be
000000f0: d93c 203f 834f 363f 458d 97be 55da 9bbe
00000100: 3339 253f 79bd eb3e bcf3 8dbc 88f8 263e
00000110: 8a1f 0ebd 264f 403e 0fac 31bf 101e 9bbe
00000120: 397f cbbe 660f b0bc 88b5 0b3d 386e 0ebd
00000130: c2d8 4bbf 32dd 56be 28ae 983e 0823 fe3e
00000140: 06fe 5b3e 753f 43be c610 09bf dd7e a6bf
00000150: c61e febc d468 13be fc54 8bbe 413b 933e
00000160: 7a3a 413e 08b0 31be 32b8 63be ce33 9b3e
00000170: 5bcb 8f3e 4903 39bc 4364 663d 4e9a c33d
00000180: 4591 a83b 335c 11be e92c c73e c973 343e
00000190: b6b0 f8bd 642f 85bd c902 173d 0b02 27bd
000001a0: 09c1 193e 69ba ae3d 975c 92be d717 a93e
000001b0: 0858 163f 8857 e0be baff 33bb 5f46 983d
000001c0: 4c74 01be 0bf6 adbe a2a7 dcbf f197 17be
000001d0: e64d c43e 078d 1dbf d8c1 2b3e 6da6 3bbf
000001e0: 2d3f 703d dece 163e 94f0 3dbc 43b9 8bbe
000001f0: 091b b9be 911e ac3e c9a8 cd3e 1217 02bf
00000200: dd0f fbbd 0ef7 4abf 9203 1c3f 5742 22be
00000210: de93 b6bd 6740 9ebe f987 11bc f091 933d
00000220: 655c 13be 2b5f c23e 52de da3d 48d8 6ebf
00000230: d3b1 32be 372c 22be ec41 8e3c b9ef 8ebd
00000240: 4008 71be edbf 4f3f 3884 1abe 1839 2fbe
00000250: fa06 5bbf b27b c23d 1670 2c3f 6967 5ebe
00000260: ca30 b83e 1aff 8f3e a693 16bf 52c9 a73d
00000270: 7a00 22be 73ab cfbd 0c97 59bd d52e 23be
00000280: a0ed 023e c73b 11bf c6e4 f9be ac75 643e
00000290: f765 813e b47c 54bc 62ab 30bf 5c14 54bf
000002a0: 260b eabc b02a 8d3e 8384 51bf 260d c53e
000002b0: e199 bf3e 0e43 093e b43d f8bd 96f9 f23d
000002c0: 07fe afbe ce68 c03d c45a b8be 71f2 c43e
000002d0: 55f3 013f 9908 933e 836e 683e 3e1b c3bc
000002e0: ac38 2ebd d422 03bf adb5 9d3c d864 093f
000002f0: 0f9a 9b3e c29e 99be 0f9b 83be 1700 823e
00000300: 253b 343e 0f2f abbf 4b35 7ebf 5cd4 c03e
00000310: 5c5d 813c 2d32 6fbf 733d 4f3e adda 40bf
00000320: 72be b1be a295 603d 3157 d33e 991f 97bd
00000330: 675f 563e 6f58 3dbe 87be 2f3f 397e 16be
00000340: e9cf d1ba 2300 b6be b5b6 d8be 6ba5 8d3e
00000350: e8f0 6bbd eb26 a1bd d827 2c3f c63e 9ebf
00000360: c366 29be 0fc8 443d 89cb 333f 35df e73e
00000370: 0b1d 1abe b998 59bd 6406 423e ae51 c0be
00000380: 714a 3dbf 1819 7b3e ebd0 73bf d89d 793d
00000390: 12f5 c33e e4f1 cfbc 49dc 81be ce12 163f
000003a0: 537c da3e 245d 953d 5ff1 b7be 3705 4abf
000003b0: f9fc d9be 8c76 88be 13cf c73d dd93 bdbd
000003c0: 7274 59be 1f63 bfbe e642 513e 016f e3be
000003d0: 0bff cc3c 1822 593e 502b c53a 69b6 75be
000003e0: e79a 463e c9b6 e1bd 7504 cbbe 7cb2 bd3e
000003f0: 5b73 113b b9ba a63e e0b0 52be ff47 20bf
0.21517602 0.1856486 -0.13660787 -0.86538684 -1.9111603 0.48965675 -0.30063176 -0.65893203
-0.07950437 0.70618796 -0.0803654 0.11785403 0.14982316 -0.6939684 0.71919686 -0.99365985
-0.14925826 0.30053064 0.018207286 0.17381057 0.1437783 0.24158943 0.018531824 -0.99648505
0.06240902 -0.41779685 -0.5304238 0.31593546 0.40415114 -0.5410086 -0.59803325 0.3404368
0.11294109 0.18577708 -0.29070672 -0.0421407 -0.04977251 -0.27521706 0.48613405 0.15173396
0.5129194 -1.1633959 0.10687488 -0.1935941 -0.2466115 0.35369372 -0.59539765 -0.17510697
-1.1136451 0.15423356 0.53307366 0.33224156 0.70115036 0.02849681 -0.1351666 -1.1478659
-0.08917815 -0.075692445 0.118005134 -0.26009712 0.62592846 0.71215075 -0.29599968 -0.30440012
0.64540404 0.46042994 -0.017328136 0.16305745 -0.034698047 0.18780193 -0.69403166 -0.30296373
-0.397455 -0.021491718 0.03410867 -0.03477308 -0.7962762 -0.20982817 0.2982037 0.49636102
0.21483621 -0.19067176 -0.5354122 -1.3007466 -0.031020533 -0.14395458 -0.27213275 0.28756145
0.18869963 -0.17352307 -0.22238234 0.3031296 0.28084835 -0.011292287 0.05624796 0.09550916
0.0051442706 -0.14195327 0.3890145 0.17622294 -0.1214308 -0.0650318 0.03686789 -0.040773433
0.15015043 0.08531649 -0.28586265 0.33026 0.58728075 -0.4381678 -0.0027465657 0.07435297
-0.1264202 -0.33976778 -1.7238657 -0.14804055 0.38340682 -0.61543316 0.16773164 -0.7330082
0.058654 0.14727351 -0.011593003 -0.2728978 -0.3615344 0.3361707 0.40167835 -0.5081645
-0.12258885 -0.79283226 0.6094295 -0.15845619 -0.08914922 -0.3090851 -0.008882516 0.0720557
-0.14390714 0.37963232 0.106869355 -0.9329877 -0.17450647 -0.15837179 0.017365418 -0.06979317
-0.23538303 0.8115223 -0.150895 -0.17111623 -0.8555752 0.09496249 0.6735853 -0.21719135
0.35974723 0.28124315 -0.58819044 0.08192696 -0.15820494 -0.10140123 -0.053122565 -0.15935834
0.12785959 -0.5673184 -0.48807353 0.22310513 0.25273106 -0.012969185 -0.6901151 -0.82843566
-0.02856977 0.2757163 -0.8184282 0.38486594 0.37422088 0.13404486 -0.12121144 0.11864011
-0.34373495 0.0939499 -0.3600675 0.38466218 0.5076192 0.28717497 0.22698407 -0.023816701
-0.042534515 -0.5122502 0.019251669 0.536695 0.30390975 -0.30003935 -0.25704238 0.25390694
0.17600687 -1.3373736 -0.9930007 0.37662017 0.015791588 -0.9343594 0.20238285 -0.7533367
-0.3471561 0.0548302 0.4127746 -0.07379074 0.2093483 -0.18490766 0.68650097 -0.14696588
-0.0016007397 -0.3554698 -0.42326894 0.27665266 -0.057602793 -0.07868751 0.67248297 -1.2362907
-0.16543107 0.048042353 0.70232445 0.4528748 -0.15050142 -0.053124163 0.1894775 -0.37562317
-0.73941714 0.24521291 -0.9524066 0.060941547 0.3827291 -0.025383897 -0.25363377 0.58622444
0.42672977 0.07293156 -0.3592634 -0.7891421 -0.42575815 -0.26652944 0.09756293 -0.09256718
-0.21235827 -0.3738031 0.20435676 -0.44420627 0.025023958 0.21204412 0.0015042815 -0.23995365
0.19395028 -0.110211916 -0.39651838 0.37050235 0.0022194001 0.32564333 -0.20575285 -0.6260986

fc1.bias f4 [128]
00000000: d73c cb3d 65ae 53bc 9f52 85be e8e2 9ebe
00000010: 5129 663b 91b2 1c3e 0cf6 8f3d 65dc 00bd
00000020: cdb9 233d 3ec2 f8bd 857b c5bd c755 c8bc
00000030: 3dc7 71be 49db e7bd 88db 0ebc 9f9d a7be
00000040: cd2a acbe 6fac e0bd a1ab ad3d 12f7 8b3d
00000050: ff6f b8be d237 aabe 8655 41be a887 c83c
00000060: fb20 3f3d fb07 a53d 7777 a93c ee6d 72be
00000070: 154e 9dbe 04fb 03be 8045 5fbd 88e8 8ebc
00000080: c235 18bc 29dd 613b 9383 debd c1b5 cd3c
00000090: 1b78 10be 85d2 ce3d c2ee 933e 4ccc bbbd
000000a0: 0768 7c3d 8dfd 29be d6db 4fbd 64f4 31be
000000b0: b332 003e 819b 1f3e cc11 d5be a617 bbbd
000000c0: 19db 953d e1b0 9abd a14b 72be 9a90 9f3d
000000d0: debc 023e 2ee7 ddbd 8d97 32be ac7d 6d3d
000000e0: 9ef0 25be 3931 95be 7612 fe3c fade 3a3d
000000f0: 60a1 b3be 0e70 41be 801b 423e 9c54 ae3b
00000100: 9270 863e 530b acbd b1ef a3be 9a55 b43d
00000110: 9018 8dbd 93a6 153e 9899 7dbe d2ae 06bf
00000120: 12f0 1fbd d9fd 46be 9f0b 83bd d48a 89be
00000130: ace3 debc d146 5fbe 7a2a b8be 817c 393e
00000140: 3f27 75be 2901 2bbe 796c b73c 083b eebd
00000150: 36d4 22bd 4cfe 9c3d 1840 b7bd c46f 89be
00000160: dd40 e03d 0276 8f3e 2526 2fbe 061a 3abe
00000170: e163 973e 682c b6bd 2ef9 cabc d576 85be
00000180: e799 3fbe d6fa 8e3d 21c0 6bbe 5d7d 703d
00000190: 4653 e2bc fb22 7bbe c19d c53c f45d fdbd
000001a0: 0989 233e d7af 8bbd 8c5a 7ebe 6170 77bd
000001b0: b4ca f8bd 3ece 17be be61 1fbe b97e 883b
000001c0: 057a c43d d6d9 663c 8d47 43be c55a 173e
000001d0: 06d1 92be 7feb df3d 6219 a43e d87a 4cbe
000001e0: 6285 d6be 7180 883d cb3d a2bd f053 853d
000001f0: 7bae c83c bcef 1a3e 9623 8bbe 83a7 e8bd
0.09923714 -0.012919997 -0.26039597 -0.3103249 0.0035119841 0.15302493 0.070293516 -0.031460185
0.039972115 -0.12146424 -0.096427 -0.024454964 -0.2361116 -0.11321122 -0.0087193325 -0.32737443
-0.33626404 -0.10970389 0.08480001 0.06834234 -0.36022946 -0.33245713 -0.18880281 0.024478748
0.046662312 0.08058163 0.020686848 -0.23674747 -0.30723634 -0.12888724 -0.05450964 -0.017444864
-0.009290161 0.0034464097 -0.108649395 0.025111081 -0.14108317 0.10098747 0.28893095 -0.09169826
0.061622646 -0.16600628 -0.05074676 -0.17378384 0.1251934 0.15586664 -0.4161514 -0.0913537
0.0731718 -0.07553268 -0.23661663 0.077912524 0.1276736 -0.1083511 -0.17440625 0.05798118
-0.1620507 -0.29139116 0.031014662 0.045622803 -0.35084057 -0.18890402 0.18955803 0.005320145
0.2625776 -0.084005974 -0.32018808 0.0880539 -0.068894506 0.14614324 -0.24765623 -0.52610505
-0.03904731 -0.19432773 -0.06398701 -0.2686373 -0.027208172 -0.21804358 -0.35969907 0.181139
-0.23940752 -0.16699661 0.022390591 -0.11632353 -0.03975316 0.07665691 -0.08947772 -0.26843083
0.10949872 0.2801972 -0.17104395 -0.1817399 0.2956839 -0.088951886 -0.024777021 -0.26067224
-0.18711053 0.06981437 -0.2302251 0.058713306 -0.027627598 -0.24525063 0.024123074 -0.12371436
0.15970244 -0.06820648 -0.24839228 -0.060409907 -0.121480376 -0.14824769 -0.1556463 0.004165497
0.09593586 0.014090022 -0.19070263 0.1478072 -0.28675097 0.10933589 0.32050616 -0.19968736
-0.41898638 0.06665123 -0.07921942 0.065101504 0.024497261 0.15130514 -0.27175587 -0.11360075

fc2.weight f4 [64, 128]
00000000: b2c1 93bf 4cbb 7bbe 7c4a 97be 2669 89bf
00000010: 0324 e7be 03c6 bfbf 208d 3ebf a114 dcbe
00000020: b4d8 45bf 236c c33d bc87 0cbe 77aa 543e
00000030: e658 133e 579d 00bf 31e4 15bf 2a83 473d
00000040: 8d66 f43e fbc7 fd3e fda0 9f3d 67a4 a33e
00000050: f3e3 0d3f 38ba fe3d dae3 8fbc 8622 bb3e
00000060: e559 63be f019 a8bf d291 11bf fc93 b83e
00000070: b7bb 3dbf 3f12 5abd 28f1 143f d5b7 fe3e
00000080: d891 7d3e 27c4 35bf 4c54 8b3e c561 49bf
00000090: ffc2 8c3e 23c0 abbe 3c0b 323e 5946 23c0
000000a0: 5d9c 78be ceb9 55bf b2e3 8f3e a988 8bbb
000000b0: 1d56 fb3d d361 683e cf05 b13e cf18 81bf
000000c0: 1867 b23e d3ca 63bf 9d76 55bf ae1b b1ba
000000d0: b968 003f 2d89 a83e 99ca d53c fc22 69be
000000e0: 161f f03e ccd4 f7be ff3c c4be 71fc 02bc
000000f0: 1c36 26be 527c af3d d056 e7be 63e0 48be
00000100: eb48 b13e 994b dcbe 6397 803e 6df6 5b3e
00000110: 5a09 c2bf ee66 373e b4c0 3c3d afb5 aebe
00000120: e1f5 d63d 0a6d f23e 7691 ed3e 93b1 c3be
00000130: 8c24 59bf dd74 943e 65c0 ca3d 9e67 c4bc
00000140: a93f 043e f3c5 f2bc d12a c43e 656a 94bd
00000150: 25b2 d53a 6916 b3be 0ef1 b03d 106c 05c0
00000160: 6e2d d03e 8c8b 033f 6a9d c9be 611e 9ebe
00000170: 692f febf 1e2d 253e 028a bebe 714e 9abe
00000180: 74df 22be 71a0 0b3e 00c1 eb3e abb6 d03e
00000190: 634c 7ebe 84a8 873d d4a2 87bf c13a 28bf
000001a0: c92c cc3d e562 e03e 467d 803b 327d 0dbf
000001b0: 5f16 34bf 30e1 ae3d dfeb 0ebe 1e59 8cbf
000001c0: 78c4 40bd bf87 55bf 4e20 74bf 2cfe 303f
000001d0: 3cfe fbbd 5f64 acbf 0818 d6be 8e80 fbbf
000001e0: ed32 af3d 8676 2ebf c1b7 893e 2fc0 f1be
000001f0: 6b48 8cbf a21a 0bbe 8042 47bf 1d11 70bf
00000200: 26b0 87bf 9a6b 2cbf 9892 bfbe 3148 7b3e
00000210: ccfc bcbe 1ee3 83bd ebb4 a8be 8789 8cbf
00000220: 2404 d03e 3e5d 01bf eb29 093f ab32 cdbe
00000230: ed89 84be bc1e a3bf dc63 34be 82bc 3d3f
00000240: 1857 973c 0b97 12be 0a3d 653e 7869 8ebe
00000250: 0fb8 00be d24c 91be ad20 01c0 b16e d23e
00000260: e7e9 97be 8c75 123d 812a 0ebf 6305 b6be
00000270: b56f a0bc f8c9 7c3e ecf9 5abf d96b e13c
00000280: a7d8 0bbd 9707 fd3e 5ad4 41be bc5d 35be
00000290: e1a7 3f3f bb07 7a3e cb08 853d 9203 3dbf
000002a0: 9e5b 67bf ec7d b8bf fb83 173e ec97 afbe
000002b0: 2e1e 68bd 8112 543e c462 b93e 4ca2 1e3d
000002c0: 214e a0be 8268 09c0 6d3d 2fbc 9fec 093f
000002d0: b464 063f 6613 fc3e cc1f a8bf fde5 f83e
000002e0: 4822 9e3d 53f3 eb3e 4a23 2bbe ee6e c23e
000002f0: 1bb0 c9be 39ee 45bf 08be 333e 26a5 183e
00000300: 1f68 eabd 5fd9 91be 4325 293f fd22 853e
00000310: f683 c2bf ccdf afbd 79c7 38be 6f70 19be
00000320: c282 053e 1b0d 053f bce5 2d3e 1f94 2dbe
00000330: 6619 31be 1384 fdbe c11d 9a3e f2ac bd3e
00000340: c1a0 55be 9972 c2be c4c7 8abe d9ea 0ebf
00000350: bf3e 89bd 2bba e63e 3d29 173f d170 40bf
00000360: acd9 b4bf cd52 843f e670 9fbe fa7a 0f3e
00000370: bb31 863e 47ee 65be 9a95 a3be 0a4e f83d
00000380: 124b f0be 730e 57be a448 aabf 18b0 5cbf
00000390: 5d56 c43e 4782 42be 4728 98bd 66c7 ee3e
000003a0: 3d3b 48bf 0fd8 39be 267d 05be 5e71 673e
000003b0: afe1 0d3f aaaa b5be d9ae ea3e 5b87 a6be
000003c0: dc07 6cbe 1d31 e6bc f494 e3be 0517 8bbe
000003d0: cc6b 4dbf 037d 8abf 591c 1a3d 3bc4 e13e
000003e0: 8c24 fd3e c9a7 71be 8b4c c23e 0157 f0bd
000003f0: 958b 2d3f 5581 30bf c1b9 99bf 6da1 adbd
-1.1543486 -0.24583167 -0.29549015 -1.0735214 -0.45144662 -1.4982303 -0.7443409 -0.4298449
-0.7728379 0.0954211 -0.13723654 0.20768152 0.14389381 -0.5024008 -0.5855132 0.048709072
0.4773449 0.49566635 0.07794378 0.31961367 0.5542595 0.12437862 -0.017564703 0.36549777
-0.22202261 -1.3132915 -0.5686313 0.36050403 -0.74114555 -0.053240057 0.58180475 0.49749628
0.24762666 -0.7100243 0.2721275 -0.7866481 0.2749252 -0.33545026 0.17387098 -2.5511687
-0.24278398 -0.8348664 0.28103405 -0.0042582345 0.12272284 0.22693567 0.34574744 -1.0085696
0.3484428 -0.8898136 -0.83384115 -0.0013512278 0.50159794 0.32917157 0.026097583 -0.22767252
0.46898717 -0.4840454 -0.38327786 -0.007994757 -0.16231579 0.08568634 -0.4518342 -0.19616847
0.34625944 -0.43026426 0.251155 0.21480723 -1.5159104 0.17910358 0.046082214 -0.3412299
0.104961164 0.47348815 0.4640004 -0.38221416 -0.8482139 0.2899541 0.098999776 -0.02397519
0.1291491 -0.029635405 0.38313916 -0.07246856 0.0016303702 -0.34978035 0.086397275 -2.0847206
0.4065966 0.51384807 -0.3937791 -0.30882552 -1.9858218 0.16130492 -0.37214667 -0.3013797
-0.15905553 0.13635422 0.46045685 0.40764365 -0.24833827 0.06623939 -1.0596566 -0.6571465
0.099694796 0.4382545 0.0039211838 -0.5526916 -0.70346636 0.08539045 -0.13957165 -1.0964696
-0.047062367 -0.8341026 -0.95361793 0.69137836 -0.12304351 -1.3468131 -0.4181521 -1.9648607
0.08554635 -0.681496 0.26898006 -0.47216937 -1.09596 -0.13584378 -0.77835846 -0.9377611
-1.0600631 -0.67351687 -0.3741653 0.24539258 -0.3691162 -0.064398035 -0.3295053 -1.097947
0.4062816 -0.505329 0.53579587 -0.4007772 -0.2588648 -1.2743754 -0.17616218 0.74115765
0.018474147 -0.14315431 0.22386566 -0.2781484 -0.12570213 -0.28378922 -2.0176194 0.41100076
-0.2967064 0.035756633 -0.55533606 -0.35550985 -0.019584516 0.2468642 -0.855376 0.027517246
-0.034142163 0.49419853 -0.18928662 -0.17711538 0.7486554 0.24417011 0.06495818 -0.7383357
-0.9037417 -1.4413428 0.1479644 -0.34295595 -0.056669407 0.20710184 0.36208165 0.038728997
-0.31309608 -2.1470037 -0.010695797 0.5387668 0.5249741 0.4923355 -1.3134704 0.48612967
0.077213824 0.4608408 -0.1671268 0.37975258 -0.3939217 -0.77316624 0.1755296 0.14906749
-0.11445641 -0.28486153 0.6607248 0.26003256 -1.5196521 -0.08587608 -0.18044843 -0.14984296
0.13038161 0.5197312 0.16982168 -0.16951035 -0.17294845 -0.49514827 0.30100825 0.3704601
-0.20862104 -0.37978056 -0.27105534 -0.558271 -0.06701421 0.4506391 0.590473 -0.75172144
-1.4128928 1.0337769 -0.31140822 0.14011756 0.26209816 -0.22454177 -0.31950074 0.1212426
-0.46932274 -0.21001606 -1.3303418 -0.862062 0.3834714 -0.1899501 -0.07429557 0.46636504
-0.7821539 -0.18148826 -0.13036022 0.2260184 0.5542249 -0.3548177 0.45836523 -0.32525143
-0.23049873 -0.02809959 -0.4444958 -0.27166 -0.8024261 -1.08194 0.03762469 0.44095024
0.49441946 -0.23599161 0.37949023 -0.11735345 0.6779111 -0.68947345 -1.2009813 -0.08478055

fc2.bias f4 [64]
00000000: 622a 4ebd e589 dabe 8131 44be e15e 9f3e
00000010: 8047 a8be 0035 25bf d544 c63e 58d0 013e
00000020: 1a66 d6be 240e 8c3e b3fb 12be 1c13 6dbe
00000030: 494e 72be 8274 6fbe 349a 3f3e 910c 013e
00000040: 03e0 74be 1fe8 0c3f 1e5a 74be e06f 88be
00000050: e3bf 9abe 81af 673e 084e babe a9c5 cd3d
00000060: d15e 27be 0e29 aebe fda7 06bd b2c5 04bf
00000070: 8807 2b3e 684f 90be 3836 083c f6b4 6bbe
00000080: 9681 d9bc 02e5 933e 0e90 9c3e eaaf 25be
00000090: 5546 08be 8c1b 92be 5e28 7ebe 3a18 8c3f
000000a0: 594f 08be ad24 e93d 7c38 b8be 5be7 a1be
000000b0: 4408 1cbe 36f4 12be 17ee bdbc bf03 5cbe
000000c0: 020b db3e cc02 d9bd b016 523e 267c 6d3e
000000d0: de11 00be 6c70 863d d41b 76be 1dc4 18bc
000000e0: 79d4 6fbe 512f 3a3c 17f8 3a3c 1385 783d
000000f0: e28a ecbe 9f3f 1b3c d449 16bf 568c 1f3e
-0.05033339 -0.4268333 -0.19159509 0.31127074 -0.3286705 -0.64533997 0.3872439 0.12677133
-0.41874772 0.27354538 -0.14353828 -0.23151821 -0.23662676 -0.23384288 0.18711168 0.1260245
-0.23913579 0.5504169 -0.23862502 -0.26647854 -0.30224523 0.22625543 -0.36387658 0.10047466
-0.16344763 -0.34015697 -0.03287505 -0.5186416 0.16702092 -0.28185582 0.008313708 -0.2301825
-0.02655105 0.28885657 0.30578655 -0.16180387 -0.1330808 -0.28536642 -0.24820086 1.0944893
-0.13311519 0.113839485 -0.35980594 -0.31621823 -0.15237528 -0.14350972 -0.02318482 -0.21485804
0.42781836 -0.105962366 0.20516467 0.2319189 -0.12506816 0.065644115 -0.24034053 -0.009324101
-0.23420896 0.01136382 0.011411688 0.060673784 -0.4619971 0.009475618 -0.587064 0.15580878

fc3.weight f4 [32, 64]
00000000: dd95 e1bf 10ef a8be a7b6 ef3c f083 353c
00000010: d6d9 28bf 9672 173f 2402 9cbe 6708 cd3d
00000020: 5a09 36bf 12e4 a53e b59d ea3b 19ff ee3e
00000030: c773 e1be e03d 763f 31c3 823e 633c 783e
00000040: dc80 313f d696 0abe 1fd2 8cbf d174 15bd
00000050: e853 10bf 7331 16bf 269a 6cbe c25b cebe
00000060: db34 ecbd 474f 03be 0626 3c3f 6218 ab3d
00000070: 76b1 97bf bbdb 1bbf 1982 a63c 6ba8 75bf
00000080: 66e4 56be 0317 0bbe ff13 f6bc 4630 ed3c
00000090: df2b 0bbb f200 303f 2718 14bf d09b a7be
000000a0: a348 ca3e b5fc dfbf ed9b 8bbe 86e4 4e3f
000000b0: 0053 0b3f 47e0 9dbf 61b4 383f e5b7 86be
000000c0: 7d2f b03b b431 a1bf e59a 9cbf 4055 31be
000000d0: 8abe d63e fd1a ebbe 6ead 1fbf fe33 04be
000000e0: 5475 26c0 dd11 74bd a0a3 d1be b53d debf
000000f0: 37b9 a03d fb80 1abf f2a5 11be 41f8 4abf
00000100: 870d d63d 9a78 b4bc 7154 073e 6b9a c5be
00000110: 1b30 cd3e eb7e bd3f 7ae4 64bf e1a9 0cbf
00000120: 856e dbbe be4b 1abf da58 e1be a5ce 41bf
00000130: ca02 163f 9850 3cbf 42f6 acbd 93bf 8fbe
00000140: a331 9bbf e933 a73e 2882 cfbf 7265 92ba
00000150: 4655 d43d 3768 333e c29b 433e 9788 e8bf
00000160: 3d27 0f3e 7f5d 823e 7c24 d33b b6d0 9a3e
00000170: c437 a6bf 305f a2bd 901f 403d d3f7 18bf
00000180: 0e18 e2be 5f03 acbb bdde 9cbe fcac 49bf
00000190: 9848 6d3e 48df 643f 6636 9ebe 88e2 163e
000001a0: 6a49 dd3c e082 62bf 41b5 93bf e7b7 a5bf
000001b0: 19ca b9be 9824 0cbe d317 9abf 948c 603e
000001c0: 013c 983e 9e59 58bf 5068 87bf 81f3 363d
000001d0: cc15 73be b9d1 6cbe 799a 3abf 0c2b a5bd
000001e0: 03f6 2fbe 0b58 e9bd 7046 81bf 6f9d d9bf
000001f0: ba71 1abf ab61 213e ce85 283e ae42 2e3f
00000200: 8e6b b7bb 3953 1b3e 4cb6 d43d cab2 023e
00000210: a4f7 1abe aa5d 3f40 77c0 183d cc07 95ba
00000220: 387d 94be 62a3 8b3d 4727 d33f f15a 5b3f
00000230: c6a8 f8be 4d5d 1cbe 18ee 243e 0d8c 553c
00000240: 5ed4 c9be 6956 d23c 1c2d 0f3e 8671 c0be
00000250: 58c3 8b3e d4fa 9a3d 1260 233e aff8 10bd
00000260: 2fbc 17be c59a 2a3d d5bc a53e 8a01 b0bd
00000270: b4cc 1ebe 59ea 0cbf 52b9 a0bd face d03e
00000280: 7e72 09bf 554e d23d 0157 58bd 6930 fc3e
00000290: 9b79 39be 74d5 47bf 6e05 37bf d67a b63d
000002a0: 4c13 e9bd dfad 403d c8e9 b53f e68d 5f3f
000002b0: 5fef 48bf ae05 33bd 1d67 d4be cf22 013f
000002c0: 0cad 95bc a1de 903e 65b5 2ebd 0eec 773e
000002d0: 1c57 2abe 6185 003e 9456 933f f5e8 8e3f
000002e0: 059d da3d 1ada 21bd 1782 903c 433f 1bbe
000002f0: 63d2 5d3e 681f 64bf d5f3 853e 9ded 2b3f
00000300: a968 bb3d 8ebb 40bf e970 22be 40cf 26bf
00000310: 7365 46be afcd 833f 092f 0a3c 5b64 66bd
00000320: ea7c 1a3b ac7a b2bd 0f4b 1dc0 87f9 963e
00000330: a3c2 54be e9a3 e9be 0759 a4bd d2c1 903d
00000340: 2ce2 83be 18ba 65bd 3418 ae3d e852 c73d
00000350: 8814 00be ae70 8bbe 37d5 fabe 3d9e 603d
00000360: 0664 933d a123 1ebf 2165 12be b99e bf3c
00000370: 4e3b 72bd 8c78 eb3d acc8 c5bd 7aba 963e
00000380: df98 283f d72c 92bd acdc a13e adc8 85bf
00000390: 95af 1e3e 1c2f cd3e e68e 7cbc f24f a3be
000003a0: c216 33be 20eb 5d3c c1ec 91bf 349f 70be
000003b0: 9227 3ec0 e1e4 293b d069 fbbd 16e4 3ebf
000003c0: faac babd 1d30 9cbc a0ce 8dbd 7a6b f5b9
000003d0: 81da 7abd c882 84be 998b ddbf 8007 98bd
000003e0: f040 ffbe c34d d13b 535f 0c3c c7d9 abbe
000003f0: 888f b23d 3c3a 48be 23c2 afbe 2330 d6be
-1.762386 -0.3299489 0.0292619 0.01107882 -0.6595739 0.5915922 -0.30470383 0.10011368
-0.7110802 0.32400566 0.0071599134 0.46679 -0.44033644 0.96188164 0.25539544 0.24241786
0.6933725 -0.13534102 -1.1001624 -0.036488358 -0.5637803 -0.58669204 -0.23105678 -0.4030438
-0.11533519 -0.1282321 0.7349552 0.0835426 -1.1851032 -0.6088216 0.020325707 -0.9596011
-0.20985565 -0.13582997 -0.030038832 0.028953683 -0.0021235866 0.6875144 -0.57849354 -0.32736063
0.39508542 -1.7498995 -0.272674 0.8081745 0.5442352 -1.2334069 0.72150236 -0.26312175
0.005376755 -1.2593293 -1.223477 -0.17317677 0.41942245 -0.45919028 -0.6237401 -0.12910458
-2.6009111 -0.05958735 -0.40945148 -1.7362581 0.07847827 -0.6035306 -0.1422346 -0.79285055
0.10451799 -0.022030164 0.13215806 -0.38594374 0.40075764 1.4804357 -0.8941113 -0.54946715
-0.42857757 -0.60271823 -0.440131 -0.7570594 0.58598006 -0.73560476 -0.084454075 -0.28075847
-1.2124523 0.32656792 -1.6211596 -0.0011169149 0.10367827 0.17520224 0.19102386 -1.8166684
0.13979812 0.25461957 0.0064435583 0.3023736 -1.2985768 -0.07928312 0.0469051 -0.5975315
-0.44158977 -0.0052494253 -0.30638686 -0.7877958 0.23172224 0.894032 -0.30900878 0.14734852
0.027012546 -0.8848095 -1.1539689 -1.2946748 -0.36287 -0.13685834 -1.203852 0.21928626
0.2973328 -0.84511745 -1.0578709 0.044665817 -0.23738784 -0.23126878 -0.72891957 -0.08064851
-0.1718369 -0.11393746 -1.0099621 -1.700117 -0.6032978 0.15759914 0.16457292 0.68070495
-0.0055975383 0.15168466 0.10386333 0.12763515 -0.1513353 2.9900918 0.037292924 -0.0011370122
-0.29001784 0.06818272 1.6496361 0.8568564 -0.48566264 -0.15269966 0.1610645 0.013033879
-0.39419836 0.02567597 0.13982052 -0.37586612 0.27297473 0.07567373 0.15954617 -0.035393413
-0.1481788 0.041651506 0.3237063 -0.085940436 -0.15507776 -0.55045086 -0.07847847 0.4078291
-0.53690326 0.10268847 -0.05281735 0.49255684 -0.18112795 -0.7806008 -0.7149266 0.08910148
-0.11380634 0.047040816 1.4211969 0.87325895 -0.7849025 -0.04370659 -0.4148492 0.5044374
-0.018270992 0.28294852 -0.04265346 0.24211141 -0.16634792 0.1255088 1.1510797 1.1164843
0.1067448 -0.03951464 0.017640157 -0.15160851 0.21662287 -0.8911042 0.26162592 0.67159444
0.09150822 -0.75286186 -0.15863384 -0.6515999 -0.19374637 1.0297145 0.008434066 -0.05624805
0.002357299 -0.08714804 -2.4577062 0.2948725 -0.20777373 -0.45632866 -0.08024793 0.07068218
-0.25758493 -0.056085676 0.0850071 0.0973261 -0.12507832 -0.27234405 -0.48990795 0.054838408
0.07196812 -0.61773115 -0.1429639 0.023391115 -0.05913859 0.11497602 -0.09657416 0.29439145
0.6585826 -0.07137459 0.31613672 -1.0451866 0.15496667 0.40075004 -0.015414929 -0.3189693
-0.1748915 0.013544828 -1.1400377 -0.23498231 -2.9711652 0.0025923776 -0.122760415 -0.7456678
-0.09115024 -0.019065911 -0.06924176 -0.00046810118 -0.061243538 -0.25881028 -1.7308227 -0.074233055
-0.4985423 0.0063874437 0.008567649 -0.33564588 0.08718783 -0.19553465 -0.34327802 -0.418336

fc3.bias f4 [32]
00000000: 3357 9cbe ac13 84bd 448c 373e 75f5 9a3e
00000010: 0e58 703e c47e 51be 2adc c0bd 6c3c 7fbe
00000020: 5f51 fabe e34e d5be 9cbe 673e 08b0 763e
00000030: c419 a2be d46d 00bf 6884 6bbd 6f4c f9bd
00000040: edfa 6fbe 3dfb a9bd 4d60 c23e 3531 f4be
00000050: 664f 25bf ae5c 0e3f 253f 3fbe 4db7 b7be
00000060: d5f2 87be b621 553d d162 f8be 4037 41bf
00000070: a20e 523f 9a50 423f 58ac 09bf 3edb 773e
-0.30535278 -0.064490646 0.17924601 0.30265394 0.2347109 -0.20458513 -0.09416993 -0.24925393
-0.48890206 -0.41661748 0.22631305 0.24090588 -0.31660283 -0.50167584 -0.05749932 -0.12172782
-0.23435564 -0.08299873 0.37964097 -0.47693792 -0.6457428 0.5561017 -0.18676431 -0.35882035
-0.26552454 0.052034102 -0.4851289 -0.7547493 0.8205358 0.7590424 -0.537786 0.24204728

fc4.weight f4 [4, 32]
00000000: d8d8 ba3f 6551 cb3d 2d81 ebbd 1d06 4e3e
00000010: 3014 1ebf cfed d03f 85f1 25c0 7b62 00be
00000020: aaef 9abe 6e0c e7be 07bc ea3d 730e bdbd
00000030: d13a afbf d959 e6bf 7cc3 a23e 3fd4 b83f
00000040: be5f d7bf 133e e2bf 5c10 323e 335a fabd
00000050: 71a1 4cc0 2b33 493e 4c23 06be 0c17 e53e
00000060: 3185 ddbf aae6 39c0 f9fa cebf 3082 a4bf
00000070: 5231 a53e 854e f43d c740 3abe e817 b53f
00000080: 4ad6 33bf bcf5 573f c466 1d3f fbca f43e
00000090: 110d d2be 51db bdbe b474 693f 14e4 e1bd
000000a0: e613 02bf 0648 64bf 1bf4 3d3f abdd a6be
000000b0: 6516 25c0 2a9f 66be 9db5 f33e 5aec b03f
000000c0: 246f 96be ba58 cf3f 1281 013f 397c 59be
000000d0: 2330 3b40 2798 a3bd d2ae 4ebf 27e6 d03f
000000e0: a7ee 9d3d 892a 953f b458 cb3d 9178 bd3f
000000f0: 7283 113f 8076 6a3e 2206 84be f68b 953f
00000100: cdbe 90bf dd40 903f 2790 d83e f215 d63e
00000110: 7568 8abd 04b7 0ec0 2fa1 ccbf 15c3 e1bd
00000120: d2c7 07bd 7e5c 20bf 489c e4bd ed44 74be
00000130: e46f 56bf aad2 c3bf 08a4 183d 74d1 95bf
00000140: e9e2 fdbe 9b6b 343f dc1d c73e 53a6 71bf
00000150: 197a e23f 643a 1e3f 4e1e 293e 3533 8fbf
00000160: 5d35 583f 0af5 0fbf a9fd 5f3e 8e5a 4840
00000170: fcf8 c9bd 5f3b a63e 0302 ad3d bc0c 66be
00000180: b544 703d 8b89 923f 3119 ecbb a3e9 3a3e
00000190: f455 683e 7f66 9f3f d5f8 ac3f 97e0 943c
000001a0: 55be 00be efa0 18bf d56f eb3e bf1b f1be
000001b0: dad1 9abf 23eb 0cbf 3b07 0c3f 683d 35be
000001c0: b423 16bf 1131 3440 8829 f4bc d5f2 21be
000001d0: 2949 70bd d48e da3d 013a ffbe acf5 c03f
000001e0: aa96 20bd 1018 b83f 1303 d4be 7f8c 8f3f
000001f0: 3222 1b3f dca8 ed3e 9246 11bf 5ada 733f
1.4597425 0.09927634 -0.11499248 0.2011952 -0.61749554 1.6322573 -2.5928662 -0.12537567
-0.30260974 -0.4512667 0.114616446 -0.092312716 -1.3689824 -1.7996169 0.31789768 1.4439772
-1.6826093 -1.7675194 0.17389053 -0.122242354 -3.1973536 0.19648425 -0.13099402 0.44744146
-1.7306272 -2.9047036 -1.6170341 -1.285223 0.3226419 0.11929039 -0.18188773 1.4147921
-0.70248854 0.84359336 0.6148493 0.47811112 -0.41025594 -0.37081388 0.911937 -0.110298306
-0.5081161 -0.891724 0.742006 -0.32590994 -2.5794919 -0.22521654 0.47599497 1.3822129
-0.2938167 1.6198952 0.5058757 -0.21238793 2.924813 -0.07988005 -0.80735505 1.6320237
0.07711535 1.1653606 0.09929028 1.4802419 0.56841195 0.22896767 -0.2578593 1.1683338
-1.1308228 1.1269795 0.4229748 0.41813618 -0.06758205 -2.2299204 -1.5986689 -0.11023537
-0.033149548 -0.6264113 -0.11162621 -0.23854418 -0.8376448 -1.5298665 0.037265807 -1.1704545
-0.4958718 0.7047669 0.38889968 -0.94394416 1.7693511 0.6180785 0.16515467 -1.1187502
0.84456426 -0.56233275 0.21874107 3.130527 -0.09861943 0.32467172 0.08447649 -0.22465795
0.058659274 1.1448225 -0.0072051515 0.18253188 0.22689039 1.2453154 1.3513438 0.018173499
-0.12572606 -0.59620565 0.4598376 -0.4709148 -1.2095292 -0.5504629 0.5469853 -0.17699206
-0.5864823 2.8154948 -0.02980496 -0.1581529 -0.05866352 0.106717736 -0.4984894 1.5074973
-0.039206184 1.4382343 -0.41408595 1.1214751 0.6059905 0.46417892 -0.56748307 0.95255053

fc4.bias f4 [4]
00000000: 2eb9 3d3f 0f33 8b3d ec42 713e 0bfb d33d
0.74110687 0.06796848 0.23560685 0.10350617
