models/m1-17.5.pth (torch, 29207 bytes, 6 tensors)

fc1.weight f4 [64, 37]
0	0xbdd8ef90	-0.10592568
1	0xbe4051b5	-0.18781169
2	0xbb7ebea4	-0.0038870955
3	0x3d31fa6a	0.043451704
4	0x3e66aad0	0.22526097
5	0x3e0439b8	0.12912643
6	0xbd97ec55	-0.07418124
7	0xbc7f1ba8	-0.015570559
8	0xbeb94078	-0.36181998
9	0xbe8c625a	-0.27418786
10	0xbc3c0475	-0.011475672
11	0x3d3b2d98	0.04569778
12	0xbdebb6a2	-0.11509444
13	0x3e8bb629	0.27287415
14	0x3cd4b7a2	0.02596647
15	0xbd1a8e7d	-0.037733544
16	0x3dc4586e	0.09587179
17	0xbdb5abb2	-0.08870639
18	0x3e8dd254	0.2769953
19	0x3ded6af4	0.11592665
20	0xbe1af375	-0.15131934
21	0x3c75e8e7	0.0150091415
22	0xbb9c46c0	-0.0047691762
23	0x3d6e0362	0.058108695
24	0x3d6bb96e	0.057549886
25	0xbc8c0399	-0.01709156
26	0x3c68e93b	0.014215763
27	0xbe0397d3	-0.12850885
28	0x3e3f4d21	0.18681766
29	0xbe328335	-0.17432864
30	0x3e1b57d1	0.15170218
31	0x3dd1bede	0.10241483
32	0xbcb8f933	-0.022579765
33	0x3d2a859b	0.041631322
34	0xbe1e8ea5	-0.15484102
35	0x3b91ec1e	0.004453196
36	0xbde65593	-0.11246791
37	0xbcbb2acb	-0.022847554
38	0x3d902c51	0.07039703
39	0x3dca13c4	0.09867051
40	0x3e6b64a2	0.22987607
41	0x3e60718b	0.21918313
42	0x3d83aa39	0.06428952
43	0x3d614260	0.05499494
44	0x3de2e215	0.11078278
45	0x3dee098d	0.116229154
46	0x3bb4eaaf	0.0055211405
47	0xbd517bde	-0.05114352
48	0xbd8047ee	-0.062637195
49	0xbd662314	-0.056185797
50	0xbc2101f7	-0.009827129
51	0x3c5bd5d3	0.013417679
52	0x3e923547	0.28556272
53	0xbec74f0f	-0.38927504
54	0xbe7596c6	-0.23983297
55	0xbf0a9601	-0.5413514
56	0xbfbcd9c3	-1.4753956
57	0xbd448856	-0.047981583
58	0xbd460bb9	-0.048351023
59	0xbca31c94	-0.019911088
60	0x3c2d7a95	0.010588308
61	0x3c68c84a	0.014207909
62	0xbdb0b9a4	-0.08629158
63	0x3c659e9a	0.014014864
64	0x3bb6ae22	0.0055749575
65	0x3e1aa113	0.15100507
66	0x3e9ee92a	0.31037265
67	0x3d47d537	0.048787322
68	0x3d336649	0.04379872
69	0xbbc32fd5	-0.0059566298
70	0xbd1f17ab	-0.03884093
71	0xbe1c228b	-0.15247552
72	0x3cf4f853	0.029903566
73	0xbb9c2282	-0.004764856
74	0x3d6c27d2	0.057655163
75	0x3d3f47ad	0.046699215
76	0xbcb7622b	-0.022385677
77	0x3e050b45	0.1299258
78	0x3e0365f7	0.12831865
79	0xbe4add1c	-0.19810909
80	0xbe0a1b11	-0.13486888
81	0x3e0546f7	0.13015352
82	0x3e43f071	0.1913469
83	0x3f32046e	0.6953801
84	0x3dc4ffa8	0.09619075
85	0xbd3f0279	-0.046633217
86	0x3ce57e73	0.028014397
87	0x3de37349	0.11105973
88	0x3e1d9244	0.15387827
89	0x3d166d16	0.036725126
90	0xbdd5a963	-0.104326986
91	0xbdb2e8bd	-0.087357976
92	0xbdc48049	-0.09594781
93	0xbcce7a8d	-0.025204921
94	0xbd35f215	-0.04442032
95	0xbdffdf13	-0.1249372
96	0xbdb1266d	-0.08649907
97	0xbdb18b5e	-0.0866916
98	0x3c46a1d6	0.012123546
99	0xbde8fdba	-0.113765195
100	0x3db82a3f	0.08992433
101	0xbad53ee0	-0.0016269349
102	0xbdcef7d0	-0.1010586
103	0xbe3284c7	-0.17433463
104	0xbdf17f54	-0.11791864
105	0x3d23e1ec	0.040010378
106	0xbd8f8fe6	-0.07009868
107	0x3e079cbd	0.13243385
108	0x3e6cc5fc	0.231224
109	0x3cfc34dd	0.030786926
110	0x3d118351	0.035525624
111	0x3daa33bb	0.08310648
112	0x3d43ca68	0.04780045
113	0x3dcfab50	0.10140097
114	0x3cf448aa	0.029819805
115	0xbe1e2b45	-0.15446194
116	0x3de190d3	0.11013951
117	0x3de03d48	0.109491885
118	0x3d854dc0	0.0650897
119	0xbde951ce	-0.11392556
120	0xbe0096df	-0.12557553
121	0xbbab32e1	-0.005224571
122	0xbd533984	-0.051568523
123	0x3b146bdf	0.0022647304
124	0xbd21dc2e	-0.03951662
125	0xbc0e1ec0	-0.008674324
126	0xbd434fa1	-0.047683362
127	0xbde07589	-0.10959918
128	0xbcf5d674	-0.030009486
129	0x3dad0fee	0.08450304
130	0x3daae33b	0.08344122
131	0x3ba42d12	0.0050102556
132	0xbd90bd2b	-0.07067331
133	0xbd7b1d2d	-0.06130712
134	0xbdaf3c5c	-0.085564345
135	0x3e3d273f	0.18472002
136	0xbe00c1c9	-0.12573923
137	0xbd84fdc8	-0.064937174
138	0xbd82a7cb	-0.0637966
139	0x3d652e71	0.055952493
140	0x3defdf7f	0.1171255
141	0x3d97e1b2	0.07416095
142	0x3c7e0405	0.015503888
143	0x3def89ed	0.11696229
144	0x3f029c9e	0.5102023
145	0x3f8221e1	1.0166589
146	0x3c2a04c2	0.010377111
147	0x3cca08a2	0.02466232
148	0xbedad943	-0.42743883
149	0xbd6a94a7	-0.057270672
150	0x3e05921e	0.1304402
151	0xbd06906b	-0.03285257
152	0xbfba805a	-1.457042
153	0xbe2c81d9	-0.16846408
154	0x3d3cefc4	0.046127096
155	0x3ceddaba	0.029034961
156	0xbd8ef353	-0.06980004
157	0xbd19c6a8	-0.03754297
158	0x3d28dc24	0.041225567
159	0x3d7fc308	0.062441856
160	0xbdf326db	-0.118726455
161	0xbe00009e	-0.12500235
162	0x3e4042b1	0.18775441
163	0xbea5acf0	-0.32358503
164	0xbe985f0f	-0.29760024
165	0xbd16efd2	-0.036849804
166	0xbe294730	-0.16531062
167	0xbf39de24	-0.72604585
168	0xbd96662b	-0.07343706
169	0xbbbcfecd	-0.0057676793
170	0xbd827436	-0.06369822
171	0xbdbb6dfd	-0.09151838
172	0xbd7832b1	-0.060595218
173	0xbe8b2983	-0.27180108
174	0xbce6acc6	-0.028158557
175	0x3e1fce6b	0.15606086
176	0xbe90455d	-0.2817792
177	0xbf4574d1	-0.7713137
178	0xbd7c00bc	-0.061524138
179	0xbca61bdd	-0.020276958
180	0xbda92b58	-0.0826022
181	0xbdf5484d	-0.11976681
182	0x3ded9860	0.11601329
183	0x3cd6b41a	0.026208926
184	0xbc0beae5	-0.00853989
185	0x3c6e8d86	0.014560109
186	0x3c81fd8d	0.015867973
187	0xbd1c44f2	-0.03815169
188	0xbde49105	-0.11160473
189	0xbd8bf816	-0.06834428
190	0xbdba736c	-0.09104046
191	0xbe6c2419	-0.23060645
192	0xbd231df4	-0.039823487
193	0x3e02c11e	0.12768981
194	0x3dbdae7e	0.09261797
195	0xbdcd85c7	-0.10035282
196	0xbea42f85	-0.32067505
197	0x3cc11cf7	0.023573382
198	0x3b9c1bbe	0.0047640493
199	0x3e4ba0cd	0.1988556
200	0x3db3a84a	0.08772333
201	0xbdb07746	-0.086164996
202	0xbe095217	-0.13410221
203	0xbce399e5	-0.027783344
204	0xbca7e664	-0.020495601
205	0x3e8515d6	0.25993222
206	0xbe1a8dac	-0.15093106
207	0x3db9668e	0.09052764
208	0xbe8a903c	-0.27063167
209	0xbee5b772	-0.4486652
210	0x3d52a2ac	0.051424667
211	0x3e15257a	0.14565077
212	0xbdf5bbdd	-0.11998723
213	0x3e05e217	0.13074528
214	0xbe2bcb31	-0.1677673
215	0x3d6f9a7d	0.05849694
216	0xbd73ac1e	-0.059490316
217	0xbe0fa728	-0.14028609
218	0x3e34ef43	0.17669396
219	0x3c707f5c	0.014678802
220	0x3e073270	0.13202834
221	0xbd204004	-0.03912355
222	0x3d5c8236	0.053835116
223	0xbd6bd1c9	-0.057573114
224	0xbd1e8daa	-0.03870932
225	0xbe130479	-0.14357175
226	0xbe38d18d	-0.18048687
227	0xbe60f827	-0.21969663
228	0x3d7eda76	0.06222006
229	0x3e33edab	0.17571132
230	0x3d79d92b	0.060998123
231	0xbe4526e1	-0.19253112
232	0xbd6b6cbd	-0.057476748
233	0x3e5fa33d	0.21839614
234	0x3e355bba	0.17710772
235	0x3cf66623	0.030078
236	0x3e290929	0.165074
237	0x3d8a16a6	0.06742601
238	0xbe13bdc4	-0.14427859
239	0xbd0013e0	-0.031268954
240	0xbea01913	-0.3126913
241	0xbe90ef6c	-0.28307664
242	0x3e19f29d	0.15033956
243	0x3dbf3da6	0.093379304
244	0xbe0bdd04	-0.1365853
245	0x3cf5f0a1	0.030021967
246	0xbd87c3a8	-0.06629115
247	0xbe27f7fd	-0.16403194
248	0x3d81678a	0.06318577
249	0x3d9c5a72	0.076344386
250	0x3d42c18e	0.04754787
251	0xbd0a5dc8	-0.033780843
252	0x3d6c1d7b	0.057645302
253	0x3bab9159	0.0052358327
254	0xbd363448	-0.044483453
255	0xbe0f0697	-0.13967358

fc1.bias f4 [64]
0	0x3e12fda3	0.14354567
1	0x3d14e685	0.036352653
2	0x3d13d516	0.036091886
3	0xbd2aca92	-0.041697092
4	0x3d13be45	0.036070127
5	0xbd250bfe	-0.04029464
6	0x3d9a94bc	0.075479
7	0xbc79a828	-0.0152378455
8	0x3c09f17f	0.008419394
9	0x3d65e5c1	0.056127314
10	0xbe2066de	-0.1566424
11	0x3dd17a12	0.10228361
12	0xbdfb40cf	-0.12268221
13	0xbe130289	-0.14356436
14	0xbe01bb37	-0.12669073
15	0x3e15a22c	0.14612645
16	0x3de4d66d	0.11173711
17	0xbe3b2439	-0.18275537
18	0x3e208345	0.15675075
19	0xbdca4750	-0.09876883
20	0x3e840c86	0.25790805
21	0x3dd218fb	0.10258671
22	0xbb648726	-0.0034870594
23	0x3dff1395	0.12454907
24	0x3e08fcde	0.13377711
25	0x3c6e1e50	0.014533594
26	0x3d1fdaba	0.039026953
27	0x3dae185b	0.08500739
28	0x3ca05609	0.019572275
29	0xbdc71847	-0.097214274
30	0xbe0e56e9	-0.13900341
31	0x3e40d738	0.188321
32	0x3c40074d	0.011720491
33	0x3cc1547a	0.023599852
34	0x3e1c3728	0.15255415
35	0xbe40e33f	-0.18836688
36	0x3e253b5a	0.16135922
37	0x3e1265d0	0.14296651
38	0xbd578588	-0.05261758
39	0xbdf5b40e	-0.11997233
40	0xbe07ad37	-0.1324967
41	0xbdebdfe2	-0.11517312
42	0xbd143a60	-0.036188483
43	0x3d656fce	0.05601483
44	0x3e64981d	0.22323652
45	0x3e2a7df2	0.16649607
46	0x3d14380f	0.036186274
47	0xbc5b3789	-0.01337994
48	0xbd85abb0	-0.065268874
49	0xbe5d18d9	-0.2159151
50	0xbe20d076	-0.15704522
51	0xbe19a0fe	-0.1500282
52	0x3da49c61	0.080376394
53	0x3d975006	0.0738831
54	0x3dba3344	0.090918094
55	0xbd94f782	-0.07273771
56	0x3dcc464b	0.09974345
57	0xbe119799	-0.14217986
58	0xbe22ff2c	-0.15917653
59	0x3d9d28cf	0.07673799
60	0xbe2d7bd4	-0.16941768
61	0x3dc740db	0.09729167
62	0x3db676a2	0.08909346
63	0xbc3b04a5	-0.011414682

fc2.weight f4 [64, 64]
0	0x3d0441ed	0.032289434
1	0x3e274f89	0.16338934
2	0x3dddad9f	0.10824131
3	0xbccc5a5f	-0.024945436
4	0xbe79711d	-0.24359556
5	0x3e0d555a	0.1380209
6	0x3d2fa642	0.042883165
7	0x3dd7a946	0.10530333
8	0xbd6f77d0	-0.05846387
9	0x3daa5239	0.08316464
10	0x3c81b606	0.015833866
11	0x3d265de8	0.0406169
12	0xbe0fbd7f	-0.14037131
13	0xbd634323	-0.05548395
14	0x3b4ea998	0.0031534191
15	0x3d9dcb62	0.07704808
16	0x3e5a16b6	0.21297726
17	0xbde30fff	-0.110870354
18	0x3d37ad1a	0.044842817
19	0x39b51c26	0.00034543982
20	0xbc36aac9	-0.011149117
21	0x3e665a2b	0.22495334
22	0x3e1e19be	0.15439507
23	0x3db24d0a	0.087061
24	0x3db3786a	0.087632015
25	0x3e23f8ae	0.16012833
26	0xbd8fc4fe	-0.07019995
27	0x3e4109fd	0.18851466
28	0xbdc033ea	-0.09384902
29	0x3dc4ddd1	0.096126206
30	0x3e11bab4	0.14231378
31	0x3cbf0e79	0.02332233
32	0x3d9f2097	0.07769888
33	0x3e45761a	0.19283333
34	0x3ed28a4e	0.41121143
35	0x3db87cfd	0.090082146
36	0x3dd3dfae	0.10345398
37	0xbe558e26	-0.20855007
38	0x3e0e726d	0.13910837
39	0x3dd47596	0.1037399
40	0xbe2e7955	-0.17038472
41	0x3de52f35	0.11190645
42	0x3db1e40a	0.08686073
43	0xbe01a254	-0.1265958
44	0xbe0f8975	-0.1401728
45	0x3deb8909	0.11500747
46	0x3d9ab954	0.0755488
47	0x3cd83dcb	0.026396653
48	0x3bdf9223	0.006822841
49	0x3e466a9e	0.19376609
50	0x3da2fd08	0.07958418
51	0xbe02da39	-0.12778558
52	0xbce551a8	-0.027993038
53	0x3db734f8	0.0894565
54	0x3d439366	0.047747992
55	0xbdb06876	-0.08613674
56	0x3e0845ef	0.13307928
57	0x3e661063	0.22467189
58	0xbd7ee398	-0.06222877
59	0xbbff0deb	-0.0077836416
60	0x3e0d6a81	0.1381016
61	0x3da03e4d	0.07824383
62	0x3c2ec3a6	0.010666763
63	0x3d30612d	0.043061424
64	0xbcdc563c	-0.026896589
65	0xbebe7cc1	-0.37204555
66	0xbdcde267	-0.100529484
67	0xbda91385	-0.08255676
68	0x3e61d449	0.22053637
69	0xbde86ef3	-0.11349287
70	0xbd70209f	-0.05862486
71	0xbe272d55	-0.16325887
72	0x3e8652f9	0.26235178
73	0xbd98c338	-0.0745911
74	0x3e80a94e	0.2512917
75	0x3e3230f4	0.17401487
76	0x3d82d8bc	0.06388995
77	0x3e0bb306	0.13642511
78	0x3e2ee343	0.17078881
79	0x3a4c699b	0.0007797719
80	0xbcf4fa88	-0.029904619
81	0x3c90ed45	0.017691264
82	0xbe191bff	-0.14952086
83	0xbe098341	-0.13428976
84	0xbc8c7b82	-0.017148737
85	0xbe3360d1	-0.17517401
86	0x3db92b31	0.09041441
87	0xbdb0936c	-0.086218685
88	0xbe827ee4	-0.25487435
89	0x3d0780b5	0.03308173
90	0x3daf501c	0.085602015
91	0x3dbf7c48	0.09349877
92	0x3dd4c469	0.10389025
93	0xbbd3bdb0	-0.0064618215
94	0x3b9c3bbe	0.004767864
95	0x3e63d955	0.22250874
96	0x3e15dd37	0.14635168
97	0x3b108452	0.0022051525
98	0x3eb0e7db	0.34551892
99	0xbd0b0c68	-0.03394738
100	0xbe4e9d40	-0.20177174
101	0xbde62664	-0.11237791
102	0x3d23ad14	0.039959982
103	0x3d47cda2	0.04878009
104	0xbd1b72ff	-0.037951466
105	0x3d217194	0.039414957
106	0xbe2d4ccc	-0.16923827
107	0xbd0ce151	-0.034394566
108	0xbbb2d1d9	-0.0054571447
109	0x3c8776b8	0.016536102
110	0x3da698ed	0.08134637
111	0xbd6d3724	-0.057913914
112	0x3de48834	0.11158791
113	0xbe10fcd3	-0.14158945
114	0x3d0a66b5	0.033789355
115	0xbe815620	-0.2526102
116	0x3da17059	0.07882757
117	0x3d775c2e	0.060390644
118	0x3d83a587	0.06428056
119	0x3f0c9d5b	0.54927605
120	0xbd417fda	-0.04724107
121	0x3d5db1a5	0.054124493
122	0xbd791f47	-0.060820844
123	0xbd1fa194	-0.038972452
124	0x3d85e9e2	0.0653875
125	0xbe53f4b4	-0.20698816
126	0x3e21b2e0	0.15790892
127	0xbbbb38fe	-0.005713581
128	0x3e4789f8	0.19486225
129	0xbe81565a	-0.25261194
130	0x3df30162	0.11865498
131	0x3b8ab92e	0.004233501
132	0xbe378b41	-0.17924215
133	0x3cff71c2	0.031182174
134	0xbdadf594	-0.08494106
135	0xbe4fb561	-0.20284034
136	0xbe25b650	-0.16182828
137	0x3da32561	0.07966114
138	0xbed2274d	-0.4104561
139	0x3d4590f8	0.048233956
140	0x3d74fd84	0.059812084
141	0xbd14000f	-0.03613287
142	0xbda28b25	-0.07936696
143	0xbe04e50d	-0.12978001
144	0xbe91535a	-0.28383905
145	0xbe06e710	-0.13174081
146	0x3e05a992	0.13052967
147	0x3d5c9542	0.05385328
148	0x3cfd8b5d	0.030950243
149	0xbe58f41c	-0.2118687
150	0x3d86dafe	0.06584738
151	0x3e10335c	0.14082092
152	0xbe15071c	-0.14553493
153	0x3cb8fc0e	0.022581127
154	0x3e251718	0.16122091
155	0x3da0133b	0.07816168
156	0x3e1d13d8	0.15339601
157	0xbdbd349e	-0.092385516
158	0xbd03c2da	-0.032168247
159	0xbe2810f7	-0.16412722
160	0x3b9cd9f8	0.004786726
161	0x3de3bf5e	0.11120485
162	0xbe9c1a4a	-0.30488807
163	0xbdd5a9bb	-0.10432764
164	0x3e00b9be	0.12570855
165	0x3cba8bd1	0.022771748
166	0xbefa65bb	-0.4890574
167	0x3de3302e	0.11093174
168	0x3e6ee6d0	0.23330235
169	0xbe99ea5f	-0.30061623
170	0xbe0e9c19	-0.13926734
171	0x3d844400	0.064582825
172	0x3d677128	0.0565044
173	0xbd0d93b5	-0.034564693
174	0x3e156d87	0.14592563
175	0xbdfcb073	-0.123383425
176	0x3dae310f	0.08505451
177	0x3bd546d8	0.0065086894
178	0xbb720131	-0.003692698
179	0xbd9cae47	-0.07650428
180	0xbbcca017	-0.00624467
181	0xbd02d41b	-0.03194056
182	0xbd655774	-0.055991605
183	0xbeb61017	-0.3555915
184	0xbd40c26c	-0.047060415
185	0xbd9fc211	-0.07800687
186	0x3dc6edfb	0.0971336
187	0x3e199d16	0.1500133
188	0xbe5fec66	-0.21867523
189	0x3b7d41b6	0.0038643903
190	0xbcfc1d81	-0.030775787
191	0x3e30e14a	0.17273441
192	0x3da3eb70	0.080038905
193	0xbe25278d	-0.16128369
194	0x3df83b53	0.1212069
195	0x3c51325c	0.012768354
196	0xbdd7f450	-0.10544646
197	0x3de7474f	0.11292898
198	0x3d246863	0.040138613
199	0xbd72a652	-0.059240647
200	0xbe02ad7d	-0.12761493
201	0xbdeffd73	-0.117182635
202	0xbc7db3a0	-0.0154847205
203	0x3cf37f9c	0.029723935
204	0x3d0c592a	0.03426472
205	0xbe092bb0	-0.13395572
206	0xbd10866b	-0.03528444
207	0x3d012267	0.03152695
208	0x3d61ab26	0.05509486
209	0x3d44207f	0.047882553
210	0xbe11c917	-0.14236866
211	0xbddbe277	-0.10736554
212	0xbd88ed92	-0.06685938
213	0x3b8e7127	0.004346985
214	0x3e0cd65d	0.13753648
215	0xbd62f89b	-0.05541287
216	0xbdcc2706	-0.09968381
217	0xbcdde3d3	-0.027086174
218	0xbe23ebd2	-0.16007927
219	0xbdf3268f	-0.11872589
220	0x3dba8544	0.0910745
221	0xbdb525bf	-0.0884509
222	0xbdb24dc2	-0.087062374
223	0xbdb42ce8	-0.08797628
224	0xbd9284bc	-0.07154223
225	0x3e1013ff	0.14070128
226	0x3d8245dd	0.063609816
227	0x3c5177d5	0.012784918
228	0xbbc26b1f	-0.00593318
229	0x3d86ec0a	0.0658799
230	0xbd942c5b	-0.07235023
231	0x3dad59f9	0.084644265
232	0xbddbc95f	-0.10731768
233	0x3e0ad7e6	0.13558921
234	0xbdb6039b	-0.088874064
235	0xbd8c9f43	-0.06866314
236	0xbd252525	-0.040318627
237	0xbc2ea55c	-0.010659542
238	0xbe0b4f06	-0.13604364
239	0xbdf626ed	-0.12019143
240	0xbdccbf17	-0.09997385
241	0xbd6f0692	-0.058355875
242	0x3dbd42ff	0.09241294
243	0xbca3557c	-0.019938223
244	0x3dd1447a	0.10218139
245	0x3d122949	0.035683904
246	0x3dbd3077	0.092377596
247	0xbddc2cd1	-0.107507356
248	0x3d9de06b	0.0770882
249	0xbbc038d8	-0.0058661513
250	0xbd25c752	-0.04047329
251	0x394cce68	0.00019531848
252	0xbddb1f6b	-0.10699352
253	0xbdc71ef5	-0.097227015
254	0x3d988f7a	0.07449241
255	0x3d5f2d48	0.054486543

fc2.bias f4 [64]
0	0x3e993061	0.29919723
1	0xbd87f7ae	-0.06639038
2	0xbda6ba66	-0.081410214
3	0xbdf9c9b7	-0.12196677
4	0x3d9eec8b	0.07759961
5	0x3df9d295	0.121983685
6	0xbddebe09	-0.1087609
7	0x3dcd48d2	0.10023655
8	0xbd9019b0	-0.070361495
9	0x3ebef894	0.37299025
10	0x3c721503	0.014775517
11	0x3d9fc910	0.078020215
12	0xbd826126	-0.06366186
13	0x3d12bd80	0.035825253
14	0x3e6dba81	0.23215677
15	0xbd745f97	-0.059661474
16	0xbe18741a	-0.14888039
17	0x3d59c49f	0.053166028
18	0xbd67403a	-0.056457736
19	0xbcfce289	-0.03086974
20	0x3d869a2e	0.06572376
21	0x3e02c6bc	0.12771124
22	0x3b19c82e	0.0023465264
23	0x3b8ce74e	0.0043000346
24	0x3e0d4f1b	0.13799708
25	0xbd07acad	-0.03312366
26	0xbd0eb5da	-0.034841396
27	0x3d0a6e5e	0.03379666
28	0x3e4c3bc9	0.19944681
29	0x3d7ea138	0.06216547
30	0x3d0236e6	0.031790636
31	0x3e012616	0.12612185
32	0xbdfe9761	-0.12431217
33	0x3e0c9b71	0.13731171
34	0x3e125592	0.14290455
35	0x3d73e891	0.059547964
36	0x3dafb3d2	0.0857922
37	0xbdc7cf0d	-0.09756289
38	0xbb2de463	-0.0026533834
39	0xbd80df34	-0.062925726
40	0x3dd05438	0.101723135
41	0x3e197d03	0.14989094
42	0xbe57c676	-0.210718
43	0xbe1b9d86	-0.15196809
44	0x3e0690f2	0.1314123
45	0x3d309351	0.043109242
46	0xbc9bf4a0	-0.019037545
47	0xbe284a3e	-0.16434571
48	0xbe313359	-0.17304744
49	0xbdd37823	-0.10325649
50	0x3e76a6d0	0.24087071
51	0xbdadffb7	-0.08496039
52	0xbd14ba71	-0.036310617
53	0xbdacda72	-0.08440103
54	0xbe6f70eb	-0.23382919
55	0x3d92c616	0.07166688
56	0xbd3ab1af	-0.04557961
57	0x3d862eea	0.06551917
58	0x3d8dc05a	0.06921454
59	0x3d0a4808	0.0337601
60	0x3eb0bd34	0.3451935
61	0x3e8c1b05	0.27364364
62	0xbb8eaf6d	-0.0043544085
63	0x3e36e7c3	0.17861848

fc3.weight f4 [4, 64]
0	0x3dcf62f9	0.101262994
1	0xbe91902e	-0.28430313
2	0xbd7d2647	-0.061804082
3	0xbdbb4715	-0.09144417
4	0x3ecc0ff0	0.3985591
5	0x3ddffddf	0.10937094
6	0xbec61ce3	-0.38693914
7	0x3d9c0b20	0.076193094
8	0x3e92e131	0.28687432
9	0x3e4e936d	0.20173426
10	0x3d507ff3	0.050903272
11	0x3e821160	0.2540388
12	0xbe2b4abb	-0.16727726
13	0xbd9df6cc	-0.077130884
14	0x3e003f3c	0.12524122
15	0xbd8e6fca	-0.06954916
16	0xbe4226de	-0.18960139
17	0x3e226851	0.15860106
18	0xbd662951	-0.056191746
19	0xbddd0bef	-0.10793292
20	0x3e06c43a	0.13160792
21	0xbe210e98	-0.15728223
22	0x3e9a7a30	0.30171347
23	0x3e193568	0.14961779
24	0x3d8756d9	0.06608362
25	0x3f1659f0	0.58730984
26	0xbe677130	-0.22601771
27	0x3e9a016f	0.3007922
28	0x3e04887b	0.12942688
29	0xbd05a47f	-0.03262758
30	0x3d245b9b	0.040126424
31	0x3df74036	0.12072794
32	0x3dbefb6d	0.093252994
33	0x3e435f28	0.19079268
34	0x3e917d3c	0.2841586
35	0x3efe0f19	0.49620894
36	0x3e0d7b6c	0.13816613
37	0x3df5fd06	0.12011151
38	0xbe3fa1f8	-0.1871413
39	0xbd8abd10	-0.06774342
40	0x3e3188a5	0.17337282
41	0x3e889ae0	0.2668066
42	0x3b12195a	0.0022292943
43	0xbdfa7245	-0.122288264
44	0x3da14b52	0.07875694
45	0xbd288d9c	-0.041150674
46	0xbd9a9ff2	-0.075500384
47	0xbedfc6b1	-0.43706277
48	0xbe2b149b	-0.16707079
49	0xbdfa4337	-0.122198515
50	0x3e34a1c3	0.17639832
51	0xbdb634cb	-0.08896788
52	0x3da2bf5f	0.079466574
53	0xbe8bc72f	-0.27300403
54	0xbe819898	-0.25311732
55	0x3e56a848	0.20962632
56	0xbbef5e86	-0.0073049692
57	0x3e2e2366	0.17005691
58	0x3e8febf1	0.28109697
59	0xbf201ae6	-0.62541044
60	0x3e1033b4	0.14082223
61	0x3e1cfd11	0.15330912
62	0x3b9ddf2e	0.004817865
63	0x3d2a2600	0.041540146
64	0x3e0f4918	0.13992727
65	0xbd1e7104	-0.038682
66	0xbde12f8d	-0.10995398
67	0xbd9a049c	-0.075204104
68	0x3e7b34b5	0.24531825
69	0x3dc6439d	0.09680865
70	0xbdb1e4f8	-0.086862504
71	0x3e2d5dee	0.16930363
72	0x3e6e65fe	0.23281094
73	0x3e1941cc	0.14966506
74	0x3ddd9d90	0.10821068
75	0x3e245f22	0.16051915
76	0xbe1fe9cc	-0.1561653
77	0x3defb8f4	0.11705199
78	0x3def1cb3	0.11675396
79	0xbdd77998	-0.10521239
80	0xbd88d0f5	-0.066804804
81	0x3db32761	0.08747745
82	0x3d108024	0.035278454
83	0xbdb622e3	-0.08893373
84	0x3e4c6e98	0.19964063
85	0xbdb0ddd4	-0.0863606
86	0x3eb1dddf	0.34739587
87	0x3e332484	0.17494398
88	0x3e03b50c	0.12862033
89	0x3f08ebc2	0.5348474
90	0xbd8ddfa6	-0.06927423
91	0xbd91d7ec	-0.07121262
92	0xbd058cb5	-0.03260489
93	0x3d4a88d5	0.0494469
94	0xbe33dc5a	-0.17564526
95	0x3e0751d3	0.13214807
96	0x3db08420	0.08618951
97	0x3e4d43fb	0.20045464
98	0x3e543b6b	0.20725791
99	0x3ebea6c7	0.37236616
100	0x3e37de55	0.17955907
101	0x3e2d4f64	0.16924816
102	0xbde1eddf	-0.110316984
103	0xbc54553c	-0.012959775
104	0x3e8ba056	0.27270764
105	0x3e0ead01	0.13933183
106	0xbe71b9c6	-0.23606023
107	0xbd1d5332	-0.03840942
108	0x3e63d5d8	0.22249544
109	0xbd6e3dfb	-0.058164578
110	0x3da838bc	0.08213946
111	0xbeb962f5	-0.3620831
112	0xbdfb86c5	-0.122815646
113	0x3e07d1b1	0.13263585
114	0x3da303a1	0.079596765
115	0xbdd01d9c	-0.101618975
116	0xbb9b943a	-0.0047478946
117	0x3e052751	0.1300328
118	0xbe8b6b81	-0.27230456
119	0x3e1ab5ed	0.15108462
120	0x3d9da359	0.07697172
121	0x3e3313fb	0.1748809
122	0x3e524d23	0.20537238
123	0xbe10ca54	-0.14139682
124	0x3e0b0da9	0.1357943
125	0x3dbee3f3	0.093208216
126	0xbe881ebe	-0.26585954
127	0x3e3cfadf	0.18455075
128	0x3df929d8	0.12166184
129	0xbda60c13	-0.08107772
130	0x3c9d3b59	0.019193338
131	0xbe0fb51c	-0.14033931
132	0xbc896855	-0.016773382
133	0x3e044ed7	0.129207
134	0xbdc7c2ec	-0.09753975
135	0x3e42bd9d	0.19017644
136	0x3f068098	0.5253997
137	0x3e44b977	0.19211374
138	0x3e9f3538	0.3109529
139	0x3dd20edf	0.10256743
140	0xbe898289	-0.26857403
141	0xbe2601da	-0.16211644
142	0x3e10e8f0	0.14151359
143	0xbe2d2090	-0.16906953
144	0x3d032442	0.032017
145	0x3e9dc597	0.30814812
146	0x3b8b5893	0.004252502
147	0xbdbe0b05	-0.092794456
148	0x3eab1afd	0.33419028
149	0xbe779400	-0.24177551
150	0x3eacac73	0.33725318
151	0x3eaf686b	0.34259352
152	0xbd1da72f	-0.038489517
153	0x3df9fe3c	0.122066945
154	0x3dfdae62	0.123867765
155	0x3eabdd81	0.33567432
156	0x3cd5263a	0.026019204
157	0x3e8ae7db	0.27130017
158	0x3c6e8359	0.014557683
159	0xbcc42332	-0.023942564
160	0x3c4078a6	0.011747515
161	0x3ebf2367	0.37331697
162	0x3ea0f850	0.31439447
163	0xbdcbef62	-0.09957768
164	0x3ecc8a1a	0.39949113
165	0xbe0c6223	-0.13709311
166	0xbe8254fe	-0.2545547
167	0xbe3a735c	-0.18208069
168	0x3e364175	0.17798407
169	0x3e11a04d	0.14221306
170	0x3d942d67	0.07235222
171	0x3da4134d	0.08011494
172	0x3edab67f	0.42717358
173	0xbc8e02e2	-0.017335359
174	0x3e9e840b	0.30960116
175	0xbe5a56ad	-0.21322127
176	0x3e5f6331	0.21815182
177	0x3e224162	0.15845254
178	0xbdb1aac8	-0.08675152
179	0xbea02d79	-0.31284693
180	0x3e754e28	0.23955595
181	0xbf1a7e54	-0.6034901
182	0x3d96c88c	0.0736247
183	0xbd961ad6	-0.07329337
184	0x3bf0d369	0.007349421
185	0xbc4d1847	-0.012517995
186	0xbe37d0f5	-0.17950805
187	0xbe9c2086	-0.30493563
188	0x3df561c4	0.11981538
189	0x3c9cc3c1	0.019136311
190	0x3e1ded67	0.15422593
191	0x3dd51ceb	0.10405906
192	0x3e49fd8f	0.19725631
193	0x3e300acc	0.17191619
194	0xbe1e6c1f	-0.15470932
195	0xbde0af7b	-0.1097097
196	0x3f00acc3	0.50263613
197	0x3e033499	0.12813033
198	0x3ce8d96c	0.028423987
199	0x3bd6203b	0.006534604
200	0x3da68e3e	0.08132599
201	0x3db9d910	0.090746045
202	0x3e1eede2	0.15520433
203	0x3d8b16e7	0.06791478
204	0x3e2e7757	0.17037712
205	0xbf382293	-0.71927756
206	0x3e3967fc	0.18106073
207	0xbe831bb4	-0.25607073
208	0xbde8803f	-0.11352586
209	0xbc5146d0	-0.012773231
210	0xbc9cd2e7	-0.019143535
211	0xbcc286b0	-0.023745865
212	0x3e25194f	0.16122936
213	0xbe319410	-0.17341638
214	0x3f1ef818	0.6209731
215	0x3de900ab	0.113770805
216	0x3df0349b	0.11728784
217	0x3e5ae8e7	0.21377908
218	0xbe180e85	-0.14849289
219	0xbd705300	-0.058672905
220	0xbbb62474	-0.005558545
221	0x3da22d18	0.07918757
222	0x3df930db	0.121675216
223	0x3e5fcae8	0.21854746
224	0xbca1c8c9	-0.019749062
225	0x3e041e9a	0.12902299
226	0x3e425691	0.18978335
227	0x3ed8270d	0.42217293
228	0xbd051701	-0.03249264
229	0xbdb20e98	-0.0869419
230	0xbe36fa6d	-0.17868967
231	0xbe70ce0a	-0.23516098
232	0x3e5222ca	0.20521083
233	0x3dae7d21	0.0851996
234	0xbdea4f8f	-0.11440956
235	0x3e2ec6d0	0.17068028
236	0xbd84e2cb	-0.0648857
237	0x3f06baff	0.52629083
238	0xbe370cae	-0.1787593
239	0xbdf24361	-0.11829258
240	0xbc52db4d	-0.012869668
241	0x3e6f76c7	0.23385154
242	0x3e8b7f7b	0.27245697
243	0xbd95082d	-0.0727695
244	0x3e866dd0	0.26255655
245	0xbf05f75a	-0.52330554
246	0xbe51f7aa	-0.20504633
247	0xbd555521	-0.05208314
248	0xbde11f29	-0.109922715
249	0x3e05db7c	0.13072008
250	0xbe173b94	-0.14768821
251	0xbe2427ee	-0.16030857
252	0x3e48354e	0.19551584
253	0x3d88a135	0.06671373
254	0xbe08404e	-0.1330578
255	0x3dcf1868	0.10112077

fc3.bias f4 [4]
0	0x3e4236f7	0.1896628
1	0x3e2099fa	0.15683737
2	0x3e2fa16e	0.17151424
3	0x3dcac8cf	0.099015824
