models/m2-14.28.pth (torch, 72463 bytes, 8 tensors)

fc1.weight f4 [128, 37]
0	0xbe3cba1f	-0.18430375
1	0xbf2ea71a	-0.68223727
2	0x3e147709	0.14498533
3	0x3d8e1076	0.069367334
4	0xbeee132a	-0.46498996
5	0x3f54e3b0	0.83159924
6	0xbdb59010	-0.08865368
7	0xbfa639f0	-1.2986431
8	0xbeb5b208	-0.3548739
9	0xbf7b51d3	-0.9817173
10	0x3f2fc049	0.6865278
11	0x3e830dac	0.25596368
12	0xbfb08e53	-1.3793434
13	0xbf2b88ac	-0.6700542
14	0x3e64f26d	0.22358103
15	0xbe261621	-0.16219379
16	0xbdededf4	-0.116176516
17	0x3e85cf59	0.26134756
18	0x3f35af29	0.709704
19	0x3f34ae8e	0.7057885
20	0x3e5a9bba	0.21348467
21	0x3cdfcf02	0.027320389
22	0xbe3df046	-0.18548688
23	0xbf842db4	-1.0326447
24	0xbf84d1cf	-1.0376529
25	0x3ee65539	0.44986895
26	0xbee36f87	-0.44421026
27	0xbf500569	-0.81258255
28	0x3ea27316	0.3172843
29	0xc010ee3e	-2.2645411
30	0x3eecc436	0.46243447
31	0xbfcbd0f8	-1.5923147
32	0x3e76d428	0.24104369
33	0xbf9bd533	-1.2174438
34	0xbf5692c3	-0.8381769
35	0x3f3db831	0.7410918
36	0xbe877d72	-0.26462895
37	0x3e85c985	0.2613031
38	0xbf2d64bc	-0.67731833
39	0xbd887399	-0.066626735
40	0xbdff09dc	-0.124530524
41	0x3f5868d4	0.84534955
42	0xbddf1214	-0.1089212
43	0x3ead0126	0.3378994
44	0x3ccadf12	0.024764571
45	0xbe317ac1	-0.17331983
46	0xbd645220	-0.055742383
47	0x3ed9755a	0.42472345
48	0xbf34ca37	-0.70621055
49	0x3ec4adc3	0.3841382
50	0x3d9b26bd	0.07575748
51	0x3ffe13d3	1.98498
52	0x3ede0552	0.43363434
53	0xbeb8d576	-0.36100358
54	0x3e07441d	0.13209577
55	0xbf18ad58	-0.596395
56	0xbf3213c0	-0.69561386
57	0x3e9fff7c	0.31249607
58	0xbf18d6a3	-0.5970251
59	0xbfd5eddd	-1.6713215
60	0x3f107817	0.5643324
61	0xbf692f17	-0.9108748
62	0x3e2aac8d	0.16667385
63	0x3eb677a0	0.35638142
64	0xbeb023ec	-0.34402406
65	0x3e84f582	0.25968558
66	0xbe470ec3	-0.19439225
67	0x3f344a78	0.7042613
68	0xbea3a3c1	-0.31960872
69	0xbfa521d9	-1.2900954
70	0xbfc690ed	-1.5512978
71	0xbfc50296	-1.5391414
72	0xbdd09e85	-0.10186485
73	0xbef1fa39	-0.47261217
74	0x3ee57445	0.4481527
75	0xbf1dcb74	-0.6163857
76	0x3e719bfc	0.2359466
77	0xbbfecc6e	-0.0077758348
78	0x3c5699ff	0.013098239
79	0xbddd3406	-0.10800938
80	0x3ec23c0e	0.37936443
81	0xbec7c899	-0.3902023
82	0xbebfead2	-0.3748384
83	0x3d8722b7	0.06598418
84	0xbe2c7e7f	-0.1684513
85	0xbfdc3459	-1.7203475
86	0x3f146214	0.57962155
87	0x3e91618e	0.2839474
88	0x3f81166c	1.0084968
89	0xbe2a8ab1	-0.16654469
90	0x3e1dbb53	0.1540349
91	0x3e8a8b51	0.27059415
92	0xbf27a3d2	-0.65484345
93	0x3d267065	0.04063453
94	0xbf151cce	-0.5824708
95	0x3e374024	0.17895561
96	0x3ecdd074	0.401981
97	0x3f39f0b7	0.72632927
98	0x3e9449ba	0.289625
99	0x3f2ff9bd	0.68740445
100	0xbfd6eb2d	-1.679052
101	0xbf02d36f	-0.5110387
102	0xc0043065	-2.0654538
103	0xbffbdc98	-1.9676695
104	0xbe22d596	-0.15901789
105	0xbe90dbf3	-0.28292808
106	0xbe7d7dd1	-0.24755026
107	0x3f26ea74	0.652015
108	0x3f9652ac	1.174398
109	0xbf0cc7ac	-0.54992175
110	0xbe24c928	-0.1609236
111	0x3cb88969	0.02252646
112	0xbee697e9	-0.45037773
113	0x3c52bb78	0.012862079
114	0x3e86de04	0.2634126
115	0x3f35f735	0.71080333
116	0xbdcf8f8b	-0.101348005
117	0x3f132a96	0.57486856
118	0xbf4a696e	-0.7906712
119	0xbca6768f	-0.020320205
120	0x3fea632d	1.8311516
121	0xbf97acea	-1.1849644
122	0x3f5139f5	0.8172906
123	0x3ef1f64b	0.4725822
124	0x3e962d19	0.29331282
125	0xbcb20d2b	-0.021734795
126	0x3e86a975	0.2630116
127	0xbe8cc6cc	-0.2749542
128	0xbdd27336	-0.10275881
129	0xbe30aaba	-0.17252627
130	0xbd3f66e5	-0.046728987
131	0xbefc8f85	-0.49328247
132	0x3e6dc5fb	0.23220055
133	0x3e8d7826	0.27630728
134	0x3e9c3eff	0.30516812
135	0x3f982a33	1.1887878
136	0xbe69f56a	-0.22847524
137	0xbe996b3e	-0.29964632
138	0x3ebc8ce1	0.36826232
139	0x3f3adab0	0.7298994
140	0x3ebca1f2	0.36842304
141	0x3d9c1c3e	0.07622574
142	0x3d629606	0.055318855
143	0xbebe4d9f	-0.37168595
144	0xbeadf1f4	-0.33973658
145	0x3f8462ea	1.0342686
146	0x3c32fbcb	0.01092429
147	0x3d9f1876	0.077683374
148	0xbeb5e2ad	-0.35524502
149	0xbf609432	-0.8772613
150	0x3f0c58ba	0.54822886
151	0x3f307b6f	0.68938345
152	0x3f05aa87	0.5221333
153	0x3ebaa0c4	0.3645078
154	0x3c93e260	0.01805228
155	0xbf9bb4a1	-1.2164499
156	0xbe9e5062	-0.30920702
157	0xbedba5ce	-0.42899936
158	0x3ddc70b0	0.10763681
159	0x3e8e553f	0.27799413
160	0xbf576181	-0.84133154
161	0x3e97c184	0.29639828
162	0x3f98b6bc	1.1930766
163	0x3e1c1904	0.15243918
164	0xbf9b5570	-1.2135448
165	0xbf1be5e4	-0.6089766
166	0x3fa8f40e	1.319948
167	0x3fa4c6f3	1.2873214
168	0xbe29631e	-0.16541716
169	0xbd47fce5	-0.048825163
170	0xbd91bfd3	-0.07116666
171	0x3f69d55a	0.91341174
172	0x3fad9d07	1.3563546
173	0x3ed702da	0.41994363
174	0x3e649a1d	0.22324415
175	0xbee75da2	-0.45188624
176	0xbf1671b8	-0.5876727
177	0xbe4a1457	-0.19734322
178	0x3e063ad5	0.1310838
179	0x3e4ca5c7	0.19985114
180	0xbf2758ce	-0.6536988
181	0xbfd645e4	-1.6740079
182	0xbf79e714	-0.9761822
183	0xbc56324c	-0.013073515
184	0xbe8b10de	-0.27161306
185	0xbe73dfad	-0.23815794
186	0xbe82a5c5	-0.25517097
187	0x3f0bf8fb	0.5467679
188	0xbfead5a0	-1.8346443
189	0xbf92873e	-1.1447523
190	0xc02c14ad	-2.688762
191	0x3f5a9bfc	0.85394263
192	0xbbe66ff2	-0.007032388
193	0xbf6f29c3	-0.934231
194	0x3f9582ce	1.1680543
195	0xbea72304	-0.32643902
196	0xbec61d8e	-0.38694423
197	0x3ea6c14c	0.3256935
198	0x3e947c99	0.2900131
199	0x3f85af98	1.0444212
200	0x3e9c76ea	0.30559474
201	0xbec37fdd	-0.3818349
202	0x3e3bd9c4	0.1834479
203	0xbe818c19	-0.253022
204	0xbfb36788	-1.401597
205	0xbef84e0f	-0.48497054
206	0xbea84f1f	-0.32872865
207	0xbc7d1caf	-0.015448733
208	0x3f3f7fdc	0.7480447
209	0x3f5ca67f	0.8619155
210	0xbdbd88b2	-0.09254588
211	0x3ef20e41	0.472765
212	0xbf2e7372	-0.68144906
213	0xbf7c5323	-0.98564357
214	0xbf602ffc	-0.8757322
215	0xbfbc22a4	-1.4698071
216	0xbf3a8299	-0.72855526
217	0x3f1bcb74	0.6085732
218	0x3f636b84	0.8883593
219	0x3dbe7ffc	0.09301755
220	0x3e1253b4	0.14289743
221	0xbdc86f3b	-0.097868405
222	0x3e86b77b	0.2631186
223	0x3e47e1f8	0.19519794
224	0xbf4b833a	-0.7949711
225	0xbed17791	-0.40911534
226	0xbd2801bf	-0.04101729
227	0x3dfc6b72	0.12325181
228	0x3b92f663	0.004484938
229	0xbea1e2a6	-0.31618232
230	0xbe360315	-0.17774613
231	0xbfbd6832	-1.4797423
232	0xbdda48da	-0.106584266
233	0x3eed7742	0.4638005
234	0xbe1a4c53	-0.15068178
235	0xc027ac2c	-2.6198835
236	0xbe4ae47a	-0.1981372
237	0x3f3070d0	0.6892214
238	0xbdd84264	-0.10559538
239	0xbf9a12d6	-1.2036998
240	0xbedef27a	-0.4354437
241	0xbf8814cf	-1.063135
242	0xbc44ed61	-0.012019486
243	0x3f9bbbb0	1.2166653
244	0xbf6ac41f	-0.9170551
245	0xbfe6f200	-1.8042603
246	0xbeba000f	-0.3632817
247	0x3ebb7b82	0.36617666
248	0xbf0fb857	-0.56140655
249	0xbf035376	-0.51299226
250	0x3e988c12	0.29794365
251	0x3ed1ad10	0.4095235
252	0x3e848d02	0.2588883
253	0xbfa0a35b	-1.2549852
254	0x3ddb15d4	0.10697523
255	0xbf0d84c5	-0.55280715

fc1.bias f4 [128]
0	0x3e9957db	0.2994984
1	0xbd0ffb03	-0.035151493
2	0x3c6027cf	0.013681366
3	0xbe6264ae	-0.22108719
4	0xbd1058cb	-0.03524093
5	0xbd770f62	-0.060317405
6	0xbd6c2d72	-0.057660528
7	0xbe076e44	-0.13225657
8	0xbefbb2c8	-0.49159837
9	0x3d42ec1c	0.047588453
10	0x3eb186a9	0.3467305
11	0xbe0b8d97	-0.13628231
12	0xbeb446d7	-0.35210297
13	0x3dd5cc7b	0.10439392
14	0xbee71e8e	-0.451405
15	0xbf0d2da2	-0.55147755
16	0xbe95280d	-0.2913212
17	0xbe3dd6b9	-0.18538941
18	0xbcd3a9f3	-0.025837874
19	0xbe8e9d92	-0.27854592
20	0x3eda73d7	0.42666504
21	0xbeead0b5	-0.45862356
22	0x3d49c207	0.049257305
23	0xbdcde39e	-0.1005318
24	0xbe8d700d	-0.2762455
25	0xbe54d59e	-0.20784613
26	0xbdc42cc7	-0.09578853
27	0x3dae3efc	0.08508107
28	0xbee37da9	-0.4443181
29	0xbec9842e	-0.39358658
30	0x3c0c3541	0.008557619
31	0xbf00fcd1	-0.5038577
32	0xbd82a2bf	-0.063786976
33	0xbd6e13b0	-0.058124244
34	0xbe689b54	-0.22715503
35	0xbeadec33	-0.33969268
36	0xbe3e1a51	-0.18564726
37	0x3e1d5b56	0.15366873
38	0x3e9228b6	0.28546685
39	0x3e3ed309	0.18635191
40	0xbeb40f16	-0.3516776
41	0xbdd0a38a	-0.101874426
42	0xbc8a82cf	-0.016908078
43	0x3daffaf1	0.08592785
44	0x3d9d70df	0.07687544
45	0xbf49e671	-0.7886725
46	0x3a4e6b62	0.00078742777
47	0x3d5eec60	0.054424644
48	0x3df6215b	0.12018081
49	0xbdbe2248	-0.092838824
50	0xbdcc2120	-0.099672556
51	0xbe5220f0	-0.20520377
52	0xbe42754c	-0.18990058
53	0xbeb11c34	-0.3459183
54	0xbee71363	-0.45131978
55	0xbe2ddfa3	-0.16979842
56	0xbed5e5bc	-0.41776836
57	0xbf0c8e8a	-0.54905
58	0xbd4cfa2d	-0.050043274
59	0x3c64a860	0.013956159
60	0x3d122f28	0.035689503
61	0x3b999ea5	0.0046881014
62	0xbe93b53d	-0.2884921
63	0x3d2b4918	0.041817755
64	0xbcce1a03	-0.025158888
65	0x3e1bbf83	0.15209775
66	0x3e04ec83	0.12980847
67	0xbe5521cb	-0.20813672
68	0x3e247d42	0.16063407
69	0xbe865531	-0.2623687
70	0xbed3e8a1	-0.4138842
71	0xbe23614d	-0.15955086
72	0x3e3676d3	0.17818765
73	0xbe0f0b71	-0.13969208
74	0xbd93e641	-0.07221652
75	0xbe21e84d	-0.15811272
76	0xbeaee0b6	-0.34155816
77	0x3db9b867	0.09068375
78	0xbe277433	-0.1635292
79	0xbe836a1e	-0.25666898
80	0x3ec0b9f7	0.3764188
81	0xbea93dc4	-0.33054936
82	0xbdd2ea38	-0.1029858
83	0x3e2dad2f	0.16960596
84	0x3d29c921	0.041451577
85	0xbc033c38	-0.008009963
86	0x3e1240b3	0.14282493
87	0xbe4c40db	-0.19946615
88	0xbf0cf96d	-0.55068094
89	0xbe96333d	-0.29335967
90	0x3da3929b	0.07986947
91	0xbdc204be	-0.09473561
92	0x3e950e6d	0.29112568
93	0xbe05a0a0	-0.13049555
94	0x3da5ff88	0.08105379
95	0xbe353bba	-0.17698565
96	0x3d048aed	0.032359052
97	0xbed30643	-0.41215715
98	0xbe8c7b4f	-0.27437827
99	0x3e81efda	0.25378305
100	0x3e41170b	0.18856446
101	0x3e3821dc	0.17981666
102	0x3cf369a7	0.029713465
103	0x3c36269a	0.011117602
104	0xbe97ddfc	-0.29661548
105	0x3d3fab5b	0.046794277
106	0xbc15f225	-0.00915197
107	0xbee03244	-0.4378835
108	0x3dd222ae	0.10260521
109	0xbf1600a8	-0.5859475
110	0x3e6c8cd4	0.23100597
111	0x3e05f4e4	0.130817
112	0x3e0fde07	0.1404954
113	0xbd26d640	-0.04073167
114	0xbed4bce8	-0.41550374
115	0xbec4c5b5	-0.38432088
116	0x3d91d260	0.07120204
117	0x3d9a3bce	0.07530938
118	0x3d59d5e6	0.053182505
119	0x3e4946fa	0.19655982
120	0xbe7947f5	-0.24343856
121	0xbd4cb99c	-0.0499817
122	0x3b97873e	0.0046242764
123	0x3d932077	0.071839266
124	0x3e301ab0	0.1719768
125	0xbc51e248	-0.012810297
126	0xbe21ebd1	-0.15812613
127	0x3ceef85c	0.029171161

fc2.weight f4 [64, 128]
0	0xbe53120b	-0.20612352
1	0x3d917517	0.07102411
2	0xbf84ed8e	-1.0384996
3	0xbe9d0423	-0.3066722
4	0xbe936e9a	-0.2879532
5	0xbeec138d	-0.46108666
6	0xbd247ec6	-0.040159963
7	0x3e1c677e	0.15273854
8	0xbf904ab0	-1.1272793
9	0x3ea99c57	0.3312709
10	0xbe05cd36	-0.13066563
11	0xbf8b35a1	-1.0875741
12	0x3da8260d	0.082103826
13	0xbf1e9816	-0.61950815
14	0xc00723e2	-2.111565
15	0xbf0d55b6	-0.5520891
16	0xbfa55987	-1.2917947
17	0xbfcbb031	-1.5913144
18	0xbf061791	-0.5237971
19	0xbe55edb9	-0.20891465
20	0x3e8109fb	0.25202927
21	0xbfd6ef7a	-1.6791832
22	0x3d2e5e92	0.042570658
23	0x3eecd725	0.46257892
24	0x3e590bdc	0.2119593
25	0xbf414330	-0.75493145
26	0xbf37dad9	-0.7181831
27	0x3ef5c4ad	0.48001614
28	0x3ef74162	0.4829207
29	0x3daae855	0.08345095
30	0x3f09e022	0.53857625
31	0xbf8a4f37	-1.0805424
32	0x3ea16696	0.3152358
33	0xbf2db88c	-0.6785972
34	0x3d263df5	0.04058643
35	0xbf6f2187	-0.93410534
36	0x3e515fdf	0.20446728
37	0x3e8d3349	0.2757819
38	0x3e6a2ac9	0.22867884
39	0x3f3f9765	0.74840385
40	0x3e617c28	0.22020018
41	0x3eb7a174	0.35865366
42	0x3ed90d39	0.423929
43	0xbe86826d	-0.26271382
44	0x3da8614f	0.08221685
45	0xbf6022a5	-0.87552863
46	0x3e0ae3d3	0.1356347
47	0xbe82d472	-0.25552708
48	0x3f0a6da3	0.5407354
49	0xbe79b005	-0.24383552
50	0x3ef2f416	0.47451848
51	0xbf117ac7	-0.5682797
52	0x3eff76a7	0.49895212
53	0xbf947d8e	-1.1600816
54	0xbf73a134	-0.9516785
55	0x3f025e55	0.5092519
56	0x3da87751	0.08225883
57	0xc01b930b	-2.4308498
58	0x3eaa06f0	0.33208418
59	0x3f789615	0.97104007
60	0x3e660af0	0.2246511
61	0x3f117bf9	0.5682979
62	0xc00379a0	-2.0542984
63	0x3e29b1e7	0.1657177
64	0x3e4de18e	0.20105574
65	0x3db4756d	0.0881146
66	0xbebac3c3	-0.3647748
67	0xbde68a06	-0.11256795
68	0x3d8f582e	0.06999241
69	0xbf503f60	-0.813467
70	0x3db791ca	0.08963354
71	0xbf85428c	-1.0410933
72	0x3f46e978	0.77699995
73	0xbf0a2962	-0.53969395
74	0x3e8d39fc	0.275833
75	0xbeea371b	-0.45745167
76	0x3e0285b6	0.12746319
77	0xbfd70dde	-1.6801107
78	0xbd347d4b	-0.0440648
79	0x3ed68c6e	0.41904014
80	0x3e47270b	0.19448487
81	0x3e27cb8a	0.16386238
82	0x3ddacacc	0.10683212
83	0x3f8b7a44	1.0896688
84	0x3f89e4a2	1.0772898
85	0xbd6f0a20	-0.058359265
86	0x3b21391d	0.0024600693
87	0xbea83c11	-0.32858327
88	0xbf9050cb	-1.1274656
89	0xbf957b0d	-1.1678177
90	0x3f7d26b9	0.9888721
91	0xbf8ce524	-1.1007428
92	0x3e0becd2	0.13664559
93	0xbec5cd4a	-0.38633186
94	0xbdb13452	-0.086525574
95	0xbd00b221	-0.031419877
96	0x3ed4b479	0.4154394
97	0x3d660fcd	0.056167413
98	0xbe5da7e8	-0.21646082
99	0x3ec24254	0.3794123
100	0x3f50a600	0.81503296
101	0x3ebb4d8f	0.3658261
102	0xbee787b5	-0.45220724
103	0x3da347e3	0.07972696
104	0x3dfe8fa3	0.1242974
105	0x3e5c4b43	0.21513085
106	0x3d19742d	0.03746431
107	0xbf3eac88	-0.7448201
108	0xbc9330ab	-0.017967543
109	0x3e9be770	0.3045001
110	0xbebf6043	-0.3737813
111	0xbefff8a4	-0.49994385
112	0x3f79cc2d	0.9757717
113	0x3edcd90c	0.43134344
114	0xbf70c429	-0.94049317
115	0xbe828731	-0.25493768
116	0xbd0ca390	-0.034335673
117	0xbd64ba3a	-0.055841662
118	0x3ef03738	0.4691713
119	0xbe329226	-0.17438564
120	0xbf836a9d	-1.0266911
121	0xbe75b8c1	-0.2399626
122	0x3e52a077	0.20569025
123	0xbe0ba714	-0.13637954
124	0xbce6c28d	-0.02816894
125	0x3da941f5	0.082645334
126	0xbfbbc92a	-1.4670765
127	0x3e9bc6d7	0.3042514
128	0x3e0a28fa	0.13492194
129	0xbf1f6487	-0.6226277
130	0x3ebaebec	0.3650812
131	0x3df4a3e7	0.119453244
132	0xc00a7c4f	-2.1638372
133	0x3ddec4f4	0.108774096
134	0x3e59edcd	0.2128212
135	0x3ddaec92	0.106896535
136	0xbf73a51c	-0.9517381
137	0x3e924291	0.2856641
138	0x3e850d3d	0.25986663
139	0xbf185fd6	-0.59521234
140	0x3e8462db	0.2585667
141	0x3e4f5795	0.20248254
142	0xbeb50467	-0.3535492
143	0xbf1078a3	-0.5643408
144	0xbe1a4e3c	-0.15068907
145	0xbfdfbf3e	-1.7480237
146	0xbf77d07d	-0.968025
147	0xbdba392b	-0.09092935
148	0x3f9c8afd	1.2229916
149	0xbf3de999	-0.74184567
150	0x3dcc91df	0.0998876
151	0xbf82480e	-1.0178239
152	0x3ea12c4f	0.31479117
153	0xbf0d5342	-0.55205166
154	0xbe9e38af	-0.3090262
155	0x3dec0791	0.11524881
156	0xbf9f4313	-1.2442344
157	0xbc9441a6	-0.01809771
158	0x3d76dff7	0.060272183
159	0xbf9c5e1d	-1.2216221
160	0xbff73913	-1.9314293
161	0x3f1ece03	0.620331
162	0xbd3d7f07	-0.04626372
163	0xbfb2df0f	-1.3974322
164	0xbe05cd06	-0.13066491
165	0x3ea422c5	0.32057777
166	0x3ea3daa5	0.3200275
167	0x3f3a2b27	0.72722095
168	0xbd5e7a29	-0.05431572
169	0xbf781823	-0.9691183
170	0xbf92fdec	-1.1483741
171	0x3dddce54	0.108303696
172	0x3cb00e98	0.021491334
173	0xbfb7d8d5	-1.4363047
174	0xbf8d97f0	-1.1061993
175	0x3e373486	0.1789113
176	0x3f2ded85	0.6794055
177	0xbf9b2bcc	-1.2122741
178	0x3efee8eb	0.49787077
179	0x3e10762a	0.14107576
180	0xbfd07332	-1.6285155
181	0xbedf62e8	-0.43630147
182	0xbe020930	-0.12698817
183	0xbf9eeabb	-1.2415384
184	0xbfd11fbf	-1.6337813
185	0xbf4622c1	-0.7739678
186	0xc016b062	-2.3545156
187	0xbed9d53d	-0.425455
188	0x3ec1ea50	0.3787408
189	0xbdb08149	-0.08618409
190	0xbea08150	-0.31348658
191	0x3de18ac2	0.11012794
192	0x3e723664	0.23653561
193	0x3f77b759	0.9676414
194	0xbf8c629c	-1.0967593
195	0xbe8ca677	-0.27470753
196	0xbf3dd18e	-0.7414788
197	0xbeb1251a	-0.3459862
198	0xbcd71493	-0.026254928
199	0xbecfc356	-0.40578717
200	0xbf310562	-0.6914884
201	0xbf4ff453	-0.81232184
202	0x3e55ec1f	0.20890854
203	0x3e8edab2	0.27901226
204	0x3ea9ac30	0.3313918
205	0xbfaa3e77	-1.3300313
206	0xbe230c57	-0.15922676
207	0x3e8c756c	0.27433336
208	0xbee48004	-0.44628918
209	0x3fa43eed	1.2831703
210	0xbf8a0324	-1.0782208
211	0xbf297a47	-0.66202205
212	0xbe02f340	-0.12788105
213	0x3e6d51c6	0.23175725
214	0xbeac3a54	-0.3363825
215	0xbe638713	-0.22219495
216	0xc0131a15	-2.298467
217	0xbfb0cb06	-1.3811958
218	0xc00031a0	-2.0030289
219	0xbf041de1	-0.5160809
220	0x3f1f2a87	0.62174267
221	0xbe9d13b9	-0.3067911
222	0x3e36501c	0.17803997
223	0xbf84f3e2	-1.0386927
224	0x3e727231	0.23676373
225	0xbf325fb4	-0.6967728
226	0xbe90fd69	-0.28318337
227	0x3eb084ef	0.3447642
228	0x3f11ca5a	0.5694939
229	0xbf302705	-0.6880954
230	0x3f35ee3a	0.7106663
231	0x3cf2bc54	0.029630817
232	0xbfe8b15f	-1.8179129
233	0x3e00ddc3	0.12584595
234	0x3db48f2d	0.08816371
235	0x400dae4a	2.2137628
236	0xbdee00c8	-0.11621243
237	0xbf9a4551	-1.2052404
238	0x3f28e8d7	0.65980285
239	0xbeae4774	-0.3403889
240	0xbf85fffc	-1.0468745
241	0xbd8cf305	-0.0688229
242	0x3c656c5d	0.014002887
243	0x3ec43c15	0.3832709
244	0xbed89204	-0.422989
245	0xbf4ba9ea	-0.79556143
246	0xbd1aff80	-0.03784132
247	0x3ea4abd8	0.32162356
248	0xbc225b1b	-0.009909417
249	0xbf0bd807	-0.54626507
250	0x3e8437a9	0.25823715
251	0xbd6b14fd	-0.057393063
252	0x3f44ca74	0.7687142
253	0x3eb54a97	0.3540847
254	0xbeb4eaa2	-0.3533526
255	0x3e63ddac	0.2225253

fc2.bias f4 [64]
0	0x3e2b2a87	0.16715442
1	0x3f0032cf	0.5007753
2	0x3efb0bd5	0.49032465
3	0xbe407403	-0.18794255
4	0xbec714a8	-0.38882947
5	0x3e317c6e	0.17332622
6	0xbe81d2c6	-0.2535612
7	0x3e2d5cc3	0.16929917
8	0xbed46ae2	-0.41487795
9	0x3e9f065c	0.3105954
10	0xbe4cd6a3	-0.20003752
11	0x3ed1f7f2	0.4100948
12	0x3ef2c3cc	0.47415006
13	0xbe95101b	-0.2911385
14	0xbe84701e	-0.2586679
15	0xbed4618f	-0.4148068
16	0x3cc47270	0.02398035
17	0xbe1d09ee	-0.15335819
18	0xbecd8e30	-0.40147543
19	0xbc2cae77	-0.010539643
20	0xbdbe8424	-0.093025476
21	0xbdc0effe	-0.09420775
22	0x3e05fb42	0.13084128
23	0x3f1739a3	0.5907232
24	0x3f1ab2d1	0.604291
25	0xbdc5f7b9	-0.0966639
26	0xbe457fc0	-0.19287014
27	0xbd8a756f	-0.0676068
28	0xbe903658	-0.2816646
29	0xbe731602	-0.23738864
30	0x3d44495d	0.047921527
31	0x3e8d65b4	0.27616656
32	0xbf496a02	-0.7867738
33	0xbedd6d7e	-0.43247598
34	0x3ede5cab	0.43430075
35	0x3ec3feed	0.3828043
36	0x3e3757f1	0.1790464
37	0xbed37ee5	-0.4130775
38	0xbf1712a2	-0.59012806
39	0x3f802b0d	1.0013138
40	0x3e18ed23	0.1493421
41	0xbf8b45d4	-1.0880685
42	0xbf0948e6	-0.5362686
43	0xbf2d4d48	-0.67696047
44	0xbe3c1e6e	-0.18370983
45	0x3e32e832	0.17471388
46	0xbee682f1	-0.45021775
47	0xbf1647fa	-0.5870358
48	0x3d56acaf	0.052410778
49	0xbe21147f	-0.15730475
50	0xbe8f9711	-0.28044942
51	0xbf071d7b	-0.5277936
52	0xbeabf25c	-0.33583343
53	0x3f37d1e5	0.7180465
54	0x3f0ac0d2	0.5420047
55	0xbeb4dfc4	-0.3532697
56	0x3f295e3d	0.6615942
57	0xbeb47bbc	-0.35250652
58	0x3ebfbd84	0.37449276
59	0xbdae911f	-0.085237734
60	0x3f0a8466	0.54108274
61	0x3e860d47	0.26182005
62	0x3eb2e03d	0.34936705
63	0x3d2938af	0.041313823

fc3.weight f4 [64, 64]
0	0xbecac33a	-0.3960207
1	0x3f4fc73e	0.81163394
2	0x3c881bad	0.01661476
3	0x3e32e151	0.17468764
4	0x3ed5ec3e	0.417818
5	0xbf30c545	-0.6905101
6	0xbf0ea71a	-0.55723727
7	0xbf4023a3	-0.7505438
8	0xbf807710	-1.0036335
9	0x3813f971	3.527984e-05
10	0xbf9d330d	-1.2281204
11	0x3f4d8f35	0.8029664
12	0xbdd25e35	-0.10271875
13	0xbf6259f2	-0.88418496
14	0x3cd639d6	0.026150625
15	0xbe0d860b	-0.13820665
16	0x3ec782a1	0.3896685
17	0xbecab298	-0.3958938
18	0xbe77ed7e	-0.2421169
19	0x3e1039ec	0.14084595
20	0x3eaf056a	0.34183818
21	0x3f141b27	0.5785393
22	0xbdfd7f03	-0.12377741
23	0xbfbc3a26	-1.4705245
24	0xbd828514	-0.06373039
25	0xbec6d933	-0.38837585
26	0xbe993759	-0.2992504
27	0x3f31b28b	0.6941306
28	0x3f22bd79	0.6357036
29	0x3f20fabc	0.6288259
30	0xbeeeb29b	-0.4662064
31	0xbedd7fc8	-0.43261552
32	0x3f1f636f	0.622611
33	0xbf6c625f	-0.923376
34	0xbcb433a0	-0.021997273
35	0xbe869d98	-0.2629211
36	0x3e89ee3b	0.26939568
37	0x3e2632ac	0.16230267
38	0x3f2317ba	0.6370808
39	0x3eb2cdcc	0.34922636
40	0xbf2fc567	-0.6866059
41	0xc019e2ef	-2.404476
42	0x3ee913c6	0.45522898
43	0x3ef65d84	0.48118222
44	0xbd08afe9	-0.033370886
45	0xbf94f975	-1.1638628
46	0x3e7dadf1	0.24773385
47	0x3e33a82c	0.17544621
48	0xbec0b139	-0.3763521
49	0x3f89e2e1	1.0772363
50	0xbe9b3029	-0.3031018
51	0x3ee89e8f	0.4543347
52	0x3e4d6361	0.20057441
53	0xbf7f8091	-0.9980555
54	0x3ef7555f	0.4830732
55	0x3ef58a63	0.47957143
56	0xbf90a423	-1.130009
57	0xbf63884a	-0.88879836
58	0xbe2d3ccc	-0.16917723
59	0xbf27a668	-0.6548829
60	0xbe4c3cc2	-0.19945052
61	0x3ef198ec	0.47186983
62	0xbdd0236f	-0.101630084
63	0xbe0d5ca3	-0.1380487
64	0xbf1f3458	-0.62189245
65	0xbfa213db	-1.266231
66	0xbeab6a3a	-0.33479482
67	0x3eac1c5c	0.33615386
68	0x3ed1b0ba	0.40955144
69	0x3db72e12	0.08944334
70	0xbec282c0	-0.3799038
71	0x3ec9246d	0.39285603
72	0x3e840688	0.25786233
73	0xbea77d1d	-0.3271264
74	0x3e4760f6	0.19470581
75	0xbe00c28e	-0.12574217
76	0xbe03c0f0	-0.12866569
77	0xbf150c84	-0.5822222
78	0xbef03c2c	-0.46920907
79	0x3e9cd564	0.30631554
80	0xbdcdc4e4	-0.100473195
81	0xbf0ee7a1	-0.5582219
82	0x3e4b87da	0.19876042
83	0xbebb4cfa	-0.36582166
84	0xbe6aaed5	-0.22918256
85	0xbdfa7c52	-0.122307435
86	0x3ef14fe5	0.47131267
87	0xbf2e1287	-0.6799702
88	0x3ee4cb61	0.44686416
89	0xbce54beb	-0.027990302
90	0xbfa163ae	-1.2608545
91	0x3ed8a984	0.4231683
92	0x3f0588a8	0.52161646
93	0x3f08abdf	0.53387254
94	0xbe44e44f	-0.19227718
95	0xbeb5b564	-0.35489953
96	0xbddac553	-0.10682168
97	0xbf4e4055	-0.8056691
98	0x3f0a379e	0.53991115
99	0x3dc50768	0.09620553
100	0xbebc0c08	-0.3672793
101	0x3eb4c2e3	0.35304937
102	0xbd87451d	-0.06604979
103	0xbeb2354e	-0.34806293
104	0x3ecf0aca	0.4043792
105	0xbeff1eb3	-0.4982811
106	0xbe9c9e31	-0.3058944
107	0x3ee63dc3	0.44968995
108	0xbf2e1daf	-0.68014044
109	0xbf9f1037	-1.2426823
110	0x3f55502d	0.83325464
111	0x3f1f5e84	0.62253594
112	0x3e52b915	0.20578416
113	0x3f8e74e2	1.112942
114	0xbeff593e	-0.49872774
115	0xbf05e812	-0.52307236
116	0xbfe01b81	-1.7508394
117	0x3e986e44	0.29771626
118	0xbf8b3fe1	-1.0878869
119	0xbe8a1eb2	-0.26976544
120	0xbe634923	-0.22195868
121	0xbfde003a	-1.7343819
122	0xbf353842	-0.7078897
123	0x3d3ff11c	0.0468608
124	0xbf4e705e	-0.8064021
125	0x3e4e442a	0.2014319
126	0x3e4de0ee	0.20105335
127	0xbebb98a3	-0.3663989
128	0x3e8d6636	0.27617043
129	0xbe5b33ba	-0.21406451
130	0xbe98c18d	-0.29835168
131	0x3f819595	1.0123774
132	0xbe0395df	-0.1285014
133	0xbeaa35fc	-0.33244312
134	0xbdd7047a	-0.10498901
135	0xbf8adc52	-1.0848486
136	0x3ecc8f47	0.39953062
137	0xbf8a06f9	-1.0783378
138	0xbe352950	-0.1769154
139	0xbd73e390	-0.059543192
140	0x3e08ca33	0.13358383
141	0xbe6a1cb5	-0.22862513
142	0xbe287e73	-0.16454487
143	0x3e84830e	0.25881237
144	0xbe251e7f	-0.16124915
145	0x3f818011	1.0117208
146	0x3db1da80	0.08684254
147	0xbfa6c964	-1.303021
148	0x3fc7514f	1.5571688
149	0x3e133a70	0.14377761
150	0xbcd284aa	-0.025698025
151	0xbf5933e5	-0.8484481
152	0x3f0721ad	0.5278576
153	0x3eb43a4b	0.35200724
154	0x3e77a5d4	0.24184352
155	0xbf27ef89	-0.65599877
156	0xbf0211f2	-0.5080863
157	0xbe81d684	-0.25358975
158	0xbebc3201	-0.367569
159	0xbe15db05	-0.1463433
160	0x3ef3c30d	0.4760975
161	0x3ea22267	0.31666872
162	0x3e18005f	0.14843892
163	0xbeccafbc	-0.39977825
164	0xbe2381f7	-0.15967546
165	0x3d82b0b7	0.06381362
166	0x3e44e595	0.19228204
167	0xbbd19639	-0.0063960818
168	0xbf84a02f	-1.0361384
169	0xbf965e86	-1.1747596
170	0xbdbdd258	-0.092686355
171	0x3e953225	0.2913982
172	0xbf4c103c	-0.7971227
173	0xbf3958e8	-0.72401285
174	0xbd81617f	-0.06317424
175	0xbfb47ab9	-1.4099952
176	0xbf920a74	-1.140944
177	0xbd96e8e4	-0.07368639
178	0xbe0974e7	-0.13423501
179	0x3b868720	0.0041054636
180	0x3e8162f3	0.25270805
181	0x3e8b8cee	0.27255958
182	0x3e029167	0.12750779
183	0x3ebfd88b	0.37469897
184	0xbf9688c2	-1.1760485
185	0x3d7d85ae	0.061895065
186	0xbe0e3171	-0.13886048
187	0x3ecbd832	0.3981338
188	0x3e2ad405	0.16682442
189	0xbe755ee9	-0.23961987
190	0x3dcb53ea	0.09928115
191	0xbe9b25e0	-0.30302334
192	0xc005bf47	-2.0897996
193	0xbf25acb1	-0.6471663
194	0x3ee9a961	0.45637038
195	0x3e89f265	0.26942745
196	0xbf9768c0	-1.1828842
197	0xbe96d7c1	-0.29461482
198	0x3d13bfd5	0.036071617
199	0xbeeb18b6	-0.4591729
200	0x3ed97671	0.42473176
201	0xbee5801e	-0.44824308
202	0xbd76634f	-0.0601533
203	0xbe33aabd	-0.175456
204	0xbf902425	-1.126103
205	0x3efcf39c	0.4940461
206	0xbe3cd3d9	-0.18440188
207	0xbee22646	-0.44169825
208	0xbf1c0eb2	-0.60959923
209	0xbc5b2f97	-0.0133780455
210	0xbde78f82	-0.11306669
211	0x3e7ea92b	0.2486922
212	0x3e59255e	0.2120566
213	0xbf4fae17	-0.81125015
214	0x3dde323d	0.10849426
215	0xbe8893aa	-0.2667516
216	0x3f5974c0	0.8494377
217	0x3d30358f	0.043019827
218	0x3e4d3e2f	0.20043252
219	0x3e08ef8f	0.13372634
220	0xbf365da3	-0.7123663
221	0xbe59bb29	-0.21262802
222	0xbdaafd9a	-0.08349152
223	0x3f9b4f21	1.2133523
224	0xbf4cff7e	-0.8007735
225	0x3f4449f5	0.7667535
226	0x3ea4850f	0.32132766
227	0x3ea33096	0.31873006
228	0xbd33a59c	-0.04385911
229	0x3dcbb426	0.0994647
230	0x3f0784d8	0.5293708
231	0xbe41562f	-0.18880533
232	0x3ef9d492	0.4879499
233	0xbf102d60	-0.56319237
234	0xbeae4382	-0.3403588
235	0x3eb9b0a7	0.36267588
236	0xbed84b29	-0.42244843
237	0xbecd48d3	-0.40094623
238	0xbfd2b2c8	-1.646081
239	0xbe510efd	-0.20415874
240	0xbf0e6cce	-0.5563477
241	0x3f3daa0e	0.7408761
242	0xbdd3370b	-0.10313233
243	0x3eaff390	0.3436551
244	0xbed853fc	-0.42251575
245	0xbf0888cd	-0.5333374
246	0x3f2ab5fd	0.6668394
247	0x3e9f4007	0.31103536
248	0xbd852228	-0.065006554
249	0x3f6440cc	0.8916137
250	0x3e2d8bb7	0.16947828
251	0xbe10b24d	-0.14130516
252	0x3f1fe83c	0.62463737
253	0xbeb386ec	-0.35063875
254	0x3ea8d323	0.32973585
255	0xbdf9c89c	-0.12196466

fc3.bias f4 [64]
0	0xbf8c0df8	-1.0941763
1	0x3e09c422	0.13453725
2	0xbf329f47	-0.6977429
3	0x3f17dd32	0.5932189
4	0xb96bae7a	-0.00022476344
5	0x3e8a4d6e	0.270122
6	0xbd14d854	-0.03633912
7	0xbeaf48f3	-0.34235343
8	0x3cdf50f2	0.027260277
9	0xbf5b83d2	-0.85748017
10	0x3e98774e	0.29778522
11	0x3e952609	0.2913058
12	0xbf2dcec1	-0.67893606
13	0x3ef2ec73	0.4744602
14	0x3ddd4dc7	0.108058505
15	0x3e8e2309	0.27761105
16	0xbe4f990f	-0.20273231
17	0xbed15375	-0.40883985
18	0xbdb90180	-0.09033489
19	0xbf07437a	-0.52837336
20	0xbc2c28f1	-0.010507808
21	0x3f8a7e70	1.0819836
22	0xbf380e78	-0.7189708
23	0x3ee84f01	0.45372775
24	0xbf498e3d	-0.78732663
25	0x3e3a3adc	0.18186516
26	0xbefdc2f9	-0.49562815
27	0xbf6ecac9	-0.93278176
28	0xbe81cc5c	-0.25351226
29	0x3f073111	0.52809244
30	0xbf40eb79	-0.753593
31	0xbf18ac93	-0.5963833
32	0x3f0301ad	0.5117443
33	0xbe8488df	-0.25885674
34	0xbf08e0da	-0.53468096
35	0x3d180d39	0.037121985
36	0x3f04829c	0.51761794
37	0xbf90c291	-1.1309377
38	0xbee01506	-0.4376604
39	0xbe52280b	-0.20523088
40	0x40554be5	3.3327572
41	0xbf64de71	-0.8940192
42	0x3e603fe9	0.2189938
43	0xbefe8a31	-0.49714807
44	0xbe2af5f7	-0.1669539
45	0x3eaaed45	0.33384147
46	0x3f370293	0.714883
47	0x3f63c060	0.88965416
48	0x3f00d4c2	0.5032464
49	0xbe9d23d0	-0.30691385
50	0x3fa79277	1.3091573
51	0x3d2bec15	0.041973192
52	0xbe7e4748	-0.24831879
53	0xbed02ac6	-0.40657634
54	0x3fa5d090	1.2954273
55	0x3d886b51	0.06661094
56	0x3f43bbb3	0.7645828
57	0x3ebac1a4	0.3647586
58	0x3f563d2b	0.83687085
59	0xbf7774bf	-0.96662515
60	0x3f70f95f	0.9413051
61	0x3e6bfa45	0.23044689
62	0xbe4a2d7f	-0.19743918
63	0x3e453eeb	0.19262283

fc4.weight f4 [4, 64]
0	0xbdfdc8be	-0.12391804
1	0xbe2fef95	-0.17181237
2	0x3e85ae8a	0.26109725
3	0x3d9a656f	0.07538878
4	0xbf04cd89	-0.5187612
5	0x3e84a462	0.25906664
6	0x3e346c84	0.1761952
7	0xbf725557	-0.9466147
8	0xbec4eede	-0.3846349
9	0xbe600243	-0.21875863
10	0x3f22b99f	0.63564485
11	0x3d99e2f0	0.07513988
12	0x3f53f791	0.8279963
13	0xbd1155ab	-0.03548209
14	0xbd80b99c	-0.06285402
15	0xc0240ab8	-2.5631542
16	0xbc484253	-0.012222844
17	0xbec73ee2	-0.38915163
18	0x3ed79bd7	0.42111084
19	0xbd16fbd8	-0.03686127
20	0x3e9f7631	0.3114486
21	0x3e34dc59	0.17662181
22	0x3cdb2ee5	0.02675576
23	0xbe798e2d	-0.24370642
24	0xbf86c9b3	-1.0530304
25	0x3ed13a51	0.40864804
26	0xbda3cd92	-0.07998194
27	0xbf559879	-0.8343578
28	0xbd213dab	-0.03936545
29	0x3e8b5a85	0.27217498
30	0x3e6fb52c	0.23408955
31	0xbf15aff0	-0.58471584
32	0xbf4a2a33	-0.7897064
33	0x3ee34066	0.4438507
34	0x3e5b54d9	0.21419086
35	0x3eca3a0d	0.39497414
36	0xbec95e78	-0.39329886
37	0xbfcb4537	-1.5880498
38	0xbc0e9846	-0.008703297
39	0x3e12513f	0.14288805
40	0x3e9bafa7	0.3040745
41	0x3dacf0d9	0.084443755
42	0xbffb7bfe	-1.9647214
43	0xbede5bd5	-0.43429437
44	0x3ec35967	0.38154146
45	0x3cd666af	0.02617201
46	0x3d296fdf	0.041366454
47	0x3df0a3c8	0.11749989
48	0xbd52fce3	-0.051510703
49	0x3edbd682	0.42937094
50	0xbc94b5d7	-0.018153114
51	0x3eebc9f0	0.46052504
52	0x3db24bd6	0.08705871
53	0xbf1fda16	-0.6244215
54	0x3e46c7ad	0.19412108
55	0xbdfb8c71	-0.122826464
56	0x3e88001a	0.26562577
57	0x3e542f7d	0.2072124
58	0xbf232b21	-0.63737684
59	0x3d1be7cd	0.03806286
60	0xbda5ca6a	-0.08095248
61	0x3f30b541	0.6902657
62	0x3f223d57	0.6337485
63	0xbf0260f9	-0.5092922
64	0x3fa977f9	1.3239738
65	0x3e8f74a8	0.2801869
66	0xbfb33bea	-1.4002659
67	0xbf317c80	-0.69330597
68	0x3ef9caec	0.4878763
69	0x3ddba50d	0.1072484
70	0x3e37cfad	0.17950316
71	0x3f0697e7	0.52575535
72	0x3e2f748f	0.17134307
73	0xbfc16c25	-1.5111128
74	0xbf2d0862	-0.67590916
75	0x3d81fd1b	0.06347104
76	0xbfd249a5	-1.6428725
77	0x3fa47c6d	1.2850472
78	0xc005f918	-2.0933285
79	0x3e83baa6	0.2572834
80	0xbbc3d855	-0.0059767165
81	0x3fa7273a	1.3058846
82	0xbebba02b	-0.36645636
83	0xbdc0e5fb	-0.09418865
84	0x3db4d28b	0.088292204
85	0xbf28734b	-0.65800923
86	0x3eda2481	0.42605975
87	0xbfebeda6	-1.84319
88	0x3dcaa3dd	0.09894536
89	0xbde29439	-0.110634275
90	0x3e11db64	0.14243847
91	0xbf6e0baa	-0.9298655
92	0x3f0cb7f9	0.5496822
93	0xbea258f5	-0.31708494
94	0xbeb3c261	-0.35109237
95	0x3db5b62b	0.088726364
96	0xbfd5c019	-1.6699249
97	0xbea611e1	-0.32435516
98	0x3e7861bc	0.24256033
99	0xc00ce65e	-2.2015605
100	0xbf2fef86	-0.6872486
101	0x3ae7398a	0.0017641049
102	0xbf0580f4	-0.5214989
103	0xbeb1e353	-0.34743747
104	0x3e85d099	0.2613571
105	0xbfc1551e	-1.5104101
106	0x3e9554b0	0.29166174
107	0x3e9c8780	0.30572128
108	0xbf996afa	-1.1985772
109	0xc0036498	-2.0530148
110	0x3e6eb50b	0.2331125
111	0xc022c513	-2.5432785
112	0x3ef232a6	0.47304267
113	0xbebf43a8	-0.37356305
114	0xbd0dfb08	-0.03466323
115	0xbc1257d1	-0.00893207
116	0xc009a0ce	-2.1504397
117	0xbe68c68b	-0.22731988
118	0xbf90b2a4	-1.1304517
119	0xbfe3a847	-1.7785729
120	0xbf0dbe9b	-0.55368966
121	0x3d215db9	0.03939602
122	0x3e99e5bd	0.3005809
123	0xbdc1dd71	-0.09466065
124	0x3e33f632	0.17574385
125	0xbed53fe5	-0.4165031
126	0xbebc2e94	-0.36754286
127	0x3efd7961	0.49506667
128	0x3dc0b44b	0.09409388
129	0x3e405dd9	0.187858
130	0xbf106adf	-0.5641307
131	0x3ee5c53f	0.4487705
132	0x3f0810ad	0.53150445
133	0xbe826d04	-0.25473797
134	0x3e4e86b7	0.20168577
135	0x3f1083e1	0.5645123
136	0x3e1ee327	0.15516339
137	0x3f86d63a	1.0534127
138	0xbebb032e	-0.36525863
139	0xbf72e711	-0.9488383
140	0xbcb3fe2a	-0.02197178
141	0xbe9124bd	-0.28348342
142	0x3f0437de	0.51647747
143	0x3e893aef	0.26802775
144	0x3c135c86	0.008994227
145	0xbf35edc3	-0.7106592
146	0xbebfe4a0	-0.37479115
147	0xbda57b84	-0.08080199
148	0x3da2b204	0.0794411
149	0xbe40729b	-0.18793719
150	0xbf806298	-1.0030088
151	0x3f374716	0.71592844
152	0x3dddf78c	0.108382314
153	0xbf0fad0f	-0.5612344
154	0x3e06e419	0.1317295
155	0x3f345530	0.70442486
156	0xbe8bc3c7	-0.27297804
157	0xbe9e54a0	-0.3092394
158	0xbeb5cab1	-0.35506204
159	0x3d3b57b9	0.045737956
160	0xbd30be71	-0.04315037
161	0xbea12fa1	-0.3148165
162	0xc0135518	-2.3020687
163	0xbe123584	-0.14278227
164	0x3f170df6	0.5900568
165	0x3c799b61	0.015234799
166	0x3f95101e	1.1645544
167	0xbe6305ce	-0.22170183
168	0xbf20f078	-0.62866926
169	0x3eb1d832	0.34735256
170	0x3e8ef418	0.27920604
171	0xbf88b9d3	-1.0681709
172	0xbe13d00f	-0.14434837
173	0xbf1233eb	-0.5711047
174	0x3e76b54e	0.240926
175	0x3e0b6fb7	0.13616835
176	0x3efc50ac	0.49280298
177	0xbebfa0f6	-0.3742749
178	0x3d11db6a	0.03560964
179	0xbf34c166	-0.706076
180	0x3e840924	0.25788224
181	0xbdb29e79	-0.087216325
182	0x3e1d0e63	0.1533752
183	0xbf817481	-1.0113679
184	0xbf0da7c7	-0.5533413
185	0x3d6bf707	0.05760863
186	0x3e90899a	0.28229982
187	0x3e915bb5	0.2839028
188	0x3e22c71f	0.15896271
189	0xbf3fd59c	-0.7493532
190	0xbea66b93	-0.32503948
191	0x3e6dcad7	0.23221909
192	0xbf84b297	-1.0367001
193	0xbe2f7da1	-0.17137767
194	0x3e4c9878	0.19980037
195	0x3d9c2da2	0.07625891
196	0xbef15c6b	-0.47140822
197	0x3e467443	0.19380288
198	0xbee623e3	-0.44949254
199	0xbf707b27	-0.93937916
200	0x3e8fc1ae	0.28077453
201	0xbf0880ea	-0.5332171
202	0xbf08ed8b	-0.5348746
203	0x3d991f19	0.074766345
204	0x3db30555	0.087412514
205	0xbd71c02b	-0.059021156
206	0xbe94c6fd	-0.29058066
207	0x3e8d84dc	0.27640426
208	0x3f888c46	1.0667808
209	0xbee5236f	-0.44753596
210	0x3f138a84	0.57633233
211	0x3b784cf0	0.0037887655
212	0xbf4b1113	-0.7932293
213	0x3e5a1d54	0.2130025
214	0x3c9b3b8c	0.018949293
215	0xbeac9075	-0.33703962
216	0x3edf5414	0.43618834
217	0xbeb2d04d	-0.34924546
218	0xbd369d1f	-0.044583436
219	0x3f2b065c	0.6680658
220	0xbd98b949	-0.07457215
221	0x3ea21d6b	0.3166307
222	0x3e57acfb	0.2106208
223	0x3dd8ab8e	0.105795965
224	0x3f7f8e50	0.99826527
225	0xbe8a96bf	-0.27068135
226	0x3e5f05bc	0.21779531
227	0xbebea88f	-0.37237975
228	0x3dd10d65	0.10207633
229	0x3f63000d	0.8867195
230	0xbec6afc2	-0.38805968
231	0x3ea4c21f	0.32179353
232	0x3e86249d	0.2619981
233	0x3e3288af	0.17434953
234	0x3e88b3f4	0.26699793
235	0x3f593510	0.8484659
236	0xbdf81c75	-0.12114803
237	0x3f140ba6	0.57830274
238	0xbf9dfede	-1.2343404
239	0x3da3c9bc	0.07997462
240	0xbfdb2770	-1.712141
241	0xbe03d33e	-0.12873551
242	0xbdddb3fe	-0.108253464
243	0x3e466baa	0.19377008
244	0xbf46a34e	-0.77592933
245	0x3f3c1589	0.7347036
246	0x3e51b725	0.2048002
247	0x3f269a77	0.65079445
248	0x3e8646b3	0.26225814
249	0xbf4e1636	-0.8050264
250	0xbfd00fcc	-1.6254821
251	0xbdf0028e	-0.11719237
252	0xbdf1615d	-0.11786149
253	0x3e18cfc5	0.14923008
254	0xbe382380	-0.17982292
255	0xbe19e81f	-0.15029953

fc4.bias f4 [4]
0	0x3f96ed4c	1.1791167
1	0xbf3e56e1	-0.74351317
2	0x3f6cdc96	0.9252409
3	0xbf8f5c43	-1.1200031
