models/m3-18.9.pth (torch, 64175 bytes, 8 tensors)

fc1.weight f4 [128, 37]
-0.05740421 0.026910072 -0.11881571 -0.271493 -0.010327414 0.25000915 -0.027805217 -0.20799647
0.18722886 0.18737435 -0.01013965 0.21494614 -0.009952629 -0.026389267 0.07009067 -0.102508835
0.045687333 0.018232204 -0.11258292 -0.0014731829 -0.014376055 -0.012561906 0.06438807 -0.0024231516
-0.018927256 0.16464953 -0.12871458 -0.28154898 -0.0143437935 -0.013853863 -0.0052752285 0.22587433
-0.11560381 -0.070285596 -0.09215409 0.044831708 -0.0041220114 -0.098642804 -0.004829024 -0.05051569
-0.012462088 0.3215266 0.15095906 -0.5091325 -0.15110826 -0.81871253 -1.4625717 -0.09978969
-0.12547381 0.14552924 0.0067887553 -0.03476275 0.010475159 0.09850026 -0.2425983 -0.116076834
0.04580146 -0.0049053207 -0.022003759 0.07553314 -0.115307294 0.027736371 -0.08076042 0.098801054
0.16650414 0.113331825 -0.03061179 -0.013753547 0.11677645 0.10171254 0.2783365 0.070070155
-0.009224881 0.02273371 0.026530817 0.0579592 0.004416268 0.09482005 -0.03701938 -0.006347311
0.091400206 0.08336242 0.095792696 -0.059580117 0.12659892 -0.048415154 0.048367955 0.10674974
-0.15102728 0.066912286 0.02231569 -0.03504215 0.08866978 0.13213107 -0.02721208 -0.018896837
-0.027659064 0.23152038 0.21611479 0.07041599 0.09414178 0.098199636 0.049294658 -0.034013238
0.26623145 -0.19846585 -0.43123773 -0.28327814 -1.7972443 -0.002581958 0.00090968335 0.1152238
0.14840528 -0.032840684 0.041770995 0.05929528 -0.03167589 0.21908621 0.024539113 -0.13253652
-0.39218292 0.13185962 -0.02353095 0.15398644 0.1130389 -0.13608071 -0.010588158 0.117453
-0.059212517 -0.089273944 -0.0024983152 0.11763287 0.040459234 -0.033802003 0.1945652 0.15598981
0.15911442 0.014977954 0.037724465 0.09946006 0.14219628 -0.1660208 0.115231276 0.23663548
0.41312215 0.49114615 0.04116348 0.031360947 0.16624615 -0.05229662 0.11815918 0.04183466
-0.0020372034 -0.1675059 -0.03836537 0.16358133 0.19987442 0.12895805 0.07950015 0.066712394
-0.9592049 -0.18422519 0.28708634 -0.009784806 0.1902823 -0.10498028 -0.32825503 -0.122957684
-0.25364158 0.03194646 0.2125488 -0.13272274 -0.71883935 -0.0015418031 -0.09582885 -0.012426626
-0.05481701 -0.3689609 0.07194342 0.30462497 -0.5802018 0.082725585 0.0048808567 0.008929506
-0.03317986 -0.03267605 0.03049129 -0.007440381 -0.107332096 -0.078646146 0.13982382 -0.1633643
0.19729717 -0.010191095 0.3011149 -0.0961425 0.02754814 0.03551848 0.032655507 0.026938735
-0.06429634 0.29748213 0.006018493 -0.044092897 -0.3375425 -0.05321672 0.39779654 0.014096658
-0.12902054 -1.2418867 0.20627606 0.27307597 0.0053052614 -0.016043285 -0.8793511 -0.056255627
0.09739731 -0.11351875 0.12271725 -0.2578781 0.001169663 0.0008250185 0.0034759026 0.047445502
0.029739259 0.10127789 0.11824559 -0.06242366 -0.041926544 0.020016393 0.034879714 0.12780729
0.01792883 0.064779766 0.052701753 0.06002376 0.014694172 0.39406818 -0.55328125 -0.5314433
-0.6175796 -2.5445917 -0.044760805 0.07384349 0.05699941 0.012935776 -0.00866574 0.12560482
0.19748215 0.20484425 0.20277359 0.038485862 0.057399027 0.11267778 0.07478562 0.12620625
00000000: ad20 6bbd 8372 dc3c a755 f3bd 2101 8bbe
00000010: 5034 29bc 3301 803e c4c7 e3bc 07fd 54be
00000020: ecb8 3f3e 10df 3f3e c620 26bc d71a 5c3e
00000030: 5a10 23bc 4e2e d8bc b28b 8f3d 27f0 d1bd
00000040: a422 3b3d b45b 953c e091 e6bd d117 c1ba
00000050: 8c89 6bbc 74d0 4dbc e4dd 833d bdcd 1ebb
00000060: 550d 9bbc e399 283e c1cd 03be 3027 90be
00000070: 3b02 6bbc 50fb 62bc d3db acbb 9a4b 673e
00000080: b1c1 ecbd e5f1 8fbd 49bb bcbd 74a1 373d
00000090: f011 87bb 3d05 cabd ca3c 9ebb 8ae9 4ebd
000000a0: c92d 4cbc 229f a43e 0395 1a3e 8256 02bf
000000b0: 20bc 1abe 2597 51bf 8d35 bbbf 895e ccbd
000000c0: 357c 00be 9e05 153e 3574 de3b 6363 0ebd
000000d0: 00a0 2b3c 81ba c93d b06b 78be b1b9 edbd
000000e0: 509a 3b3d d0bc a0bb 3a41 b4bc 1eb1 9a3d
000000f0: 3b26 ecbd 6337 e33c b865 a5bd 3558 ca3d
00000100: 1080 2a3e 841a e83d 94c5 fabc 8f56 61bc
00000110: 7e28 ef3d aa4e d03d 1f82 8e3e f180 8f3d
00000120: f523 17bc 0c3c ba3c 2857 d93c a066 6d3d
00000130: 57b6 903b 0431 c23d a2a1 17bd 1bfd cfbb
00000140: 0830 bb3d ebb9 aa3d f62e c43d 480a 74bd
00000150: 26a3 013e f84e 46bd 7a1d 463d 9c9f da3d
00000160: e5a6 1abe 4f09 893d 65cf b63c 5c88 0fbd
00000170: 8098 b53d 5e4d 073e deeb debc 8acd 9abc
00000180: 4395 e2bc ae13 6d3e 324d 5d3e 4236 903d
00000190: 68cd c03d e41c c93d 32e9 493d 7751 0bbd
000001a0: 7d4f 883e a23a 4bbe 31cb dcbe d509 91be
000001b0: 1a0c e6bf 1136 29bb d177 6e3a 75fa eb3d
000001c0: 8ef7 173e f483 06bd 1018 2b3d 9cdf 723d
000001d0: 94be 01bd 2358 603e 4006 c93c a7b7 07be
000001e0: 33cc c8be 3506 073e fbc3 c0bc 9fae 1d3e
000001f0: f080 e73d be58 0bbe f479 2dbc 338b f03d
00000200: d388 72bd 42d5 b6bd c6ba 23bb 81e9 f03d
00000210: 95b8 253d f873 0abd 1a3c 473e cbbb 1f3e
00000220: e4ee 223e 1866 753c f884 1a3d b7b1 cb3d
00000230: e79b 113e 5b01 2abe 60fe eb3d 9250 723e
00000240: bf84 d33e 8277 fb3e 0a9b 283d 5674 003d
00000250: 6e3c 2a3e fb34 56bd 71fd f13d d25a 2b3d
00000260: 9a82 05bb ab86 2bbe 0225 1dbd dd81 273e
00000270: e1ab 4c3e 940d 043e fad0 a23d 82a0 883d
00000280: 748e 75bf 87a5 3cbe fbfc 923e 7350 20bc
00000290: 5dd9 423e e7ff d6bd 0b11 a8be 3dd1 fbbd
000002a0: 4fdd 81be 4bda 023d 65a6 593e 78e8 07be
000002b0: db05 38bf 5416 caba eb41 c4bd 0c99 4bbc
000002c0: cd87 60bd 71e8 bcbe 1257 933d cef7 9b3e
000002d0: 1b88 14bf 086c a93d 98ef 9f3b 104d 123c
000002e0: 9be7 07bd 52d7 05bd dfc8 f93c 71ce f3bb
000002f0: eed0 dbbd 3b11 a1bd fa2d 0f3e f948 27be
00000300: 4508 4a3e 8df8 26bc bb2b 9a3e 5ce6 c4bd
00000310: a3ac e13c d37b 113d c8c1 053d 9fae dc3c
00000320: cdad 83bd 944f 983e c736 c53b c19a 34bd
00000330: 5fd2 acbe c7f9 59bd fdab cb3e abf5 663c
00000340: f61d 04be 25f6 9ebf 083a 533e 9dd0 8b3e
00000350: c2d7 ad3b 356d 83bc 271d 61bf 4d6c 66bd
00000360: 3e78 c73d 857c e8bd 2e53 fb3d 9908 84be
00000370: 614f 993a 0e46 583a f8cb 633b 3756 423d
00000380: bf9f f33c c86a cf3d be2a f23d f4af 7fbd
00000390: 2bbb 2bbd 6bf9 a33c 08de 0e3d eadf 023e
000003a0: 7bdf 923c 41ab 843d cbdd 573d 79db 753d
000003b0: d3bf 703c 4ec3 c93e d7a3 0dbf ab0c 08bf
000003c0: b219 1ebf 97da 22c0 1b57 37bd 413b 973d
000003d0: 3778 693d 94f0 533c bffa 0dbc 8d9e 003e
000003e0: c338 4a3e b1c2 513e e1a3 4f3e 5aa3 1d3d
000003f0: 3e1b 6b3d 9cc3 e63d 3429 993d 363c 013e

fc1.bias f4 [128]
0.03793451 -0.13002017 0.14794265 0.23502678 -0.17137258 0.07063914 -0.080896296 0.04293229
-0.13330339 0.16702369 0.052757453 -0.15374412 -0.15170978 -0.061257374 -0.0005196922 -0.07312213
-0.06157802 -0.066423394 -0.11625426 -0.10260032 -0.06683643 0.05407062 0.047335777 -0.15844335
0.077574305 0.05214504 0.20317161 -0.029695423 0.09365391 0.0779743 -0.021061182 0.024860004
0.17112869 0.082628 -0.14113154 0.08608847 0.11809563 0.15260042 -0.08137563 0.016676852
-0.19024512 -0.07310993 -0.119146556 0.20189875 -0.31823373 -0.07582323 -0.097254395 -0.09691447
-0.09171985 -0.058125976 0.06700302 0.12208457 -0.08288778 -0.15016188 -0.009876947 -0.09340907
0.00208267 -0.065627664 -0.17849664 0.094434574 -0.0018650882 -0.023189167 0.24015132 -0.04972891
-0.1467836 0.009783385 0.15639764 0.08087406 0.22923338 0.032213483 0.00027026143 0.07763999
-0.02745179 0.09983869 -0.10765313 0.039117634 0.032944515 -0.26226577 0.25629625 0.10787689
-0.032115284 -0.04129105 -0.16279055 0.0032584087 0.011116841 -0.09503019 0.24449033 0.056213472
-0.1934653 -0.04967957 0.08039335 0.0722059 0.0736408 -0.15140057 -0.05066035 0.051812917
0.027557475 0.087207526 -0.11669399 0.045753554 0.17406252 -0.17984457 -0.03447623 0.06487926
-0.13669859 -0.053387936 -0.09229819 -0.00027655647 0.01796614 0.06315027 0.18722188 -0.054110684
0.05865976 -0.0841636 -0.1925345 0.17858252 0.30295658 0.07163657 -0.1427173 -0.08881309
0.07526815 -0.2544611 -0.006198262 -0.1247905 0.076227784 0.22457974 -0.33314016 -0.015822785
00000000: 3761 1b3d 0224 05be 477e 173e dcaa 703e
00000010: 4b7c 2fbe 41ab 903d f5ac a5bd c5d9 2f3d
00000020: af80 08be 4208 2b3e 3318 583d 196f 1dbe
00000030: cf59 1bbe 03e9 7abd f43b 08ba 0ec1 95bd
00000040: 3c39 7cbd fd08 88bd b716 eebd 1e20 d2bd
00000050: 8ae1 88bd 2879 5d3d 29e3 413d f93e 22be
00000060: 47df 9e3d 0a96 553d 380c 503e d143 f3bc
00000070: 9fcd bf3d fdb0 9f3d 8088 acbc 35a7 cb3c
00000080: 5c3c 2f3e de38 a93d c984 10be 274f b03d
00000090: 1fdc f13d 4943 1c3e 44a8 a6bd e59d 883c
000000a0: 9ecf 42be a9ba 95bd 1c03 f4bd 8cbe 4e3e
000000b0: 88ef a2be 3649 9bbd 502d c7bd 187b c6bd
000000c0: 9ed7 bbbd 8115 6ebd e138 893d 7a07 fa3d
000000d0: 12c1 a9bd 09c4 19be ebd2 21bc 414d bfbd
000000e0: 687d 083b cc67 86bd d3c7 36be ea66 c13d
000000f0: fa75 f4ba 35f7 bdbc 3aea 753e 8bb0 4bbd
00000100: 714e 16be 7e4a 203c b426 203e 4da1 a53d
00000110: 28bc 6a3e 49f2 033d e0b1 8d39 b701 9f3d
00000120: 94e2 e0bc 3a78 cc3d 3f79 dcbd d039 203d
00000130: d4f0 063d b347 86be 4339 833e 8fee dc3d
00000140: 518b 03bd ce20 29bd 91b2 26be 078b 553b
00000150: 6923 363c 309f c2bd ac5b 7a3e 1940 663d
00000160: c51b 46be ce7c 4bbd 45a5 a43d b0e0 933d
00000170: fdd0 963d c008 1bbe 3a81 4fbd c839 543d
00000180: 37c0 e13c dc99 b23d 42fd eebd 1468 3b3d
00000190: 723d 323e 2d29 38be f336 0dbd 6bdf 843d
000001a0: b7fa 0bbe 4fad 5abd d506 bdbd c8fe 90b9
000001b0: ba2d 933c ee54 813d 18b7 3f3e 2aa3 5dbd
000001c0: 3745 703d f75d acbd c427 45be 56de 363e
000001d0: 201d 9b3e 32b6 923d 7c24 12be a3e3 b5bd
000001e0: 3026 9a3d ba48 82be ca1a cbbb 2992 ffbd
000001f0: 501d 9c3d 3bf8 653e 5991 aabe c99e 81bc

fc2.weight f4 [64, 128]
-0.015805582 -0.45588687 0.3409781 -0.2605913 -0.022299975 -0.007531676 -0.2729755 0.0064501255
-0.043483328 -0.15293491 -0.079019845 -0.113838255 0.008194815 0.0051796176 -0.13880001 -0.0017505535
-0.020678349 0.13996157 0.061981976 -0.13327156 0.03920145 0.017967273 0.052906197 0.13352838
-0.003057771 -0.87502444 -0.044675566 -0.10561213 -0.083493054 0.022536434 0.06460866 -0.019621804
-0.07336614 0.05102431 0.21244735 -0.06814236 0.0436956 0.6116048 -0.04693215 -0.019748013
-0.044753283 -0.19395553 -0.064040326 -0.16881433 0.10010463 0.07266334 -0.15015279 0.14000379
0.0108698085 0.015639193 -0.034065355 -0.18177025 -0.00042695718 -0.0034558717 0.08276553 0.006301091
0.20065619 -0.057136565 0.011831928 0.103179514 -0.08709804 0.27524817 0.1617972 0.14142905
-0.009436622 0.09851283 0.010295787 0.011391108 -0.17718053 -0.019012848 0.15972975 -0.0034624212
0.0081448 0.04643842 0.077524476 0.13837628 0.015301071 0.011971465 0.10397626 -0.17015341
0.08546073 -0.06210827 -0.03896444 0.06649798 -0.080649614 -0.023203788 0.018411027 -0.035282955
-0.09802217 -0.19382274 -0.012584025 -0.17203005 -0.050083127 -0.07152552 -0.18632545 -0.026617272
0.16444175 -0.098877795 -0.15369488 -0.3372677 0.3730527 -0.13145874 -0.022854162 -0.019358503
-0.25005934 -0.1764583 -0.2969657 -0.015443508 -0.4444015 -0.118936144 0.18572874 0.14128272
0.04366719 -0.21688165 -0.024048084 -0.07883535 -0.008073863 -0.20899816 0.026730606 -0.023511102
-0.056074776 -0.029335026 0.071356535 -0.0585439 -0.10911274 -0.0032101574 0.056296606 -0.30499703
-0.3698628 -0.08833576 -0.0915527 -0.08032146 -0.030032497 -0.54656255 -0.07097342 0.26049367
0.36401862 0.37666944 -0.06964366 -0.28597668 -0.021634622 0.007944958 0.021615451 -0.06929397
-0.27406567 0.3636983 0.22694749 -0.4774175 -0.5932242 -0.27574852 0.11775454 -0.18968745
0.086335234 -0.16443077 0.111950226 -0.042926006 0.046057247 -0.16208047 0.22190186 0.15306664
0.039630756 0.1842336 -0.19931342 0.2613499 -0.028603507 -0.02576817 0.13400543 -0.28889117
-0.28920794 -0.086867414 -0.3155146 0.24090102 -0.36053014 0.116772175 -0.7678927 0.33176824
-0.14777233 0.06672233 0.16927789 -0.22183241 -0.35085815 -0.11359335 0.29896206 0.027575187
-0.1903077 -0.14549047 -0.23192513 0.24466679 -0.036264032 0.15220979 -0.112706214 0.0809899
-0.27500343 0.06434833 -0.013282366 -0.049188316 0.20718546 -0.26590064 -0.08892703 0.1014033
0.17335558 0.00418724 -0.33588067 -0.020330587 0.13218094 -0.40694487 -0.130475 -0.25500906
-0.12141695 -0.09616094 0.03845265 -0.18044582 -0.3654337 0.18562396 -0.028659895 0.43452224
0.017933682 -0.13128723 -0.11184058 -0.12191204 -0.20005225 -0.88128024 -0.3519308 0.078078896
-0.025967462 0.3748233 0.051726967 0.013218293 -0.0758874 -0.13143232 -0.094508715 -0.032564137
0.4321676 0.14379458 -0.3507535 0.05484122 0.12474487 0.204426 -0.1397437 0.051684447
-0.12258167 0.026740458 -0.05095217 -0.1335653 0.022511318 -0.17019077 -0.33110029 -0.072857745
-0.01833824 0.09800148 -0.40502232 -0.29691032 0.027876424 -0.04069745 -0.12378311 0.18514082
00000000: b57a 81bc 016a e9be ae94 ae3e 396c 85be
00000010: 70ae b6bc 47cc f6bb 72c3 8bbe 935b d33b
00000020: 931b 32bd f89a 1cbe 28d5 a1bd 0824 e9bd
00000030: 8c43 063c c8b9 a93b 9721 0ebe d472 e5ba
00000040: a465 a9bc 1652 0f3e d0e0 7d3d 5778 08be
00000050: b391 203d 1a30 933c 2bb4 583d aabb 083e
00000060: e264 48bb 9a01 60bf bafd 36bd 2c4b d8bd
00000070: 68fe aabd 549e b83c 8c51 843d e8bd a0bc
00000080: fd40 96bd defe 503d cc8b 593e 398e 8bbd
00000090: 28fa 323d 2292 1c3f ed3b 40bd 96c6 a1bc
000000a0: 384f 37bd 479c 46be 9327 83bd aadd 2cbe
000000b0: a803 cd3d 84d0 943d a7c1 19be 275d 0f3e
000000c0: 4817 323c c41d 803c 1d88 0bbd fb21 3abe
000000d0: 39d9 dfb9 e87b 62bb f980 a93d 6279 ce3b
000000e0: d178 4d3e 0808 6abd b4da 413c c84f d33d
000000f0: 7560 b2bd 54ed 8c3e 2aae 253e c7d2 103e
00000100: 109c 1abc 18c1 c93d a9af 283c c5a1 3a3c
00000110: d06e 35be d5c0 9bbc 3290 233e cae9 62bb
00000120: c471 053c 3636 3e3d 27c5 9e3d 83b2 0d3e
00000130: 58b1 7a3c f723 443c 81f1 d43d b23c 2ebe
00000140: 0906 af3d 3e65 7ebd 2d99 1fbd 1830 883d
00000150: a02b a5bd df15 bebc b9d2 963c dc84 10bd
00000160: d9bf c8bd 7879 46be 3a2d 4ebc a528 30be
00000170: f723 4dbd f97b 92bd 19cc 3ebe 770c dabc
00000180: 6b63 283e 7180 cabd 3162 1dbe 5aae acbe
00000190: c300 bf3e 1f9d 06be a738 bbbc b995 9ebc
000001a0: c707 80be 7cb1 34be e30b 98be c406 7dbc
000001b0: 9888 e3be cb94 f3bd ad2f 3e3e 6bac 103e
000001c0: 5edc 323d 3916 5ebe 7d00 c5bc 6e74 a1bd
000001d0: 3c48 04bc 9d03 56be 25fa da3c 5b9a c0bc
000001e0: aaae 65bd 0250 f0bc 6023 923d bacb 6fbd
000001f0: 8076 dfbd 8161 52bb 4597 663d 9228 9cbe
00000200: a85e bdbe 61e9 b4bd fb7f bbbd 947f a4bd
00000210: b606 f6bc 86eb 0bbf 835a 91bd 6d5f 853e
00000220: a660 ba3e d1da c03e 56a1 8ebd 896b 92be
00000230: 173b b1bc 922b 023c e312 b13c ffe9 8dbd
00000240: 5652 8cbe aa36 ba3e ec64 683e 1170 f4be
00000250: 8bdd 17bf e92e 8dbe 4b29 f13d 6d3d 42be
00000260: 87d0 b03d 8a60 28be 2946 e53d 2ed3 2fbd
00000270: 86a6 3c3d 6cf8 25be 3e3a 633e 80bd 1c3e
00000280: dc53 223d bca7 3c3e d118 4cbe a7cf 853e
00000290: e751 eabc c517 d3bc b838 093e 8be9 93be
000002a0: 1013 94be 8be7 b1bd 218b a1be c2ae 763e
000002b0: 6897 b8be 4026 ef3d 9e94 44bf 87dd a93e
000002c0: a151 17be b8a5 883d 2f57 2d3e 0928 63be
000002d0: aea3 b3be a1a3 e8bd 8e11 993e 5ce5 e13c
000002e0: 06e0 42be 74fb 14be c87d 6dbe ee89 7a3e
000002f0: 9889 14bd e2dc 1b3e 84d2 e6bd 08de a53d
00000300: 40cd 8cbe 0fc9 833d 489e 59bc b079 49bd
00000310: 6d28 543e 2124 88be 601f b6bd 89ac cf3d
00000320: 2084 313e 1d35 893b 8df8 abbe 558c a6bc
00000330: 715a 073e 145b d0be 3d9b 05be 8c90 82be
00000340: 73a9 f8bd 07f0 c4bd 8780 1d3d cac6 38be
00000350: 201a bbbe 3514 3e3e 28c8 eabc b379 de3e
00000360: a8e9 923c 2970 06be ad0c e5bd 05ad f9bd
00000370: 7fda 4cbe 959b 61bf 4630 b4be d4e7 9f3d
00000380: b7b9 d4bc d7e8 bf3e a8df 533d 8a91 583c
00000390: da6a 9bbd 3296 06be c98d c1bd f961 05bd
000003a0: 1245 dd3e e33e 133e f695 b3be 30a1 603d
000003b0: 3d7a ff3d 0d55 513e f918 0fbe 12b3 533d
000003c0: 190c fbbd ce0e db3c 39b3 50bd 58c5 08be
000003d0: a869 b83c 7d46 2ebe fa85 a9be 7136 95bd
000003e0: 143a 96bc 00b5 c83d 165f cfbe a104 98be
000003f0: 195d e43c 5fb2 26bd 0082 fdbd 8e95 3d3e

fc2.bias f4 [64]
-0.020265404 0.011650929 -0.016074914 -0.078448236 -0.101485305 -0.048756592 -0.1150373 0.13293621
-0.12946199 -0.070754215 0.18357779 0.029101403 0.20276436 0.10715057 -0.049674343 0.00073463115
-0.033479895 0.0845862 0.0062946156 0.13229328 0.16267937 0.051842052 0.11783282 0.098264255
-0.05950561 -0.19866242 0.21024895 -0.11944528 0.2424198 0.054492272 0.16629441 0.36816725
-0.02658624 0.31580755 0.114958555 0.009805908 0.005870628 -0.094257854 0.046432823 0.00655893
-0.07454977 0.102210835 0.088507295 0.055137593 0.05010484 0.073003136 0.29915187 0.019776877
0.048923932 0.31767336 -0.055655148 0.015823841 -0.09862662 0.04765761 0.16400602 0.0024096326
0.0073832823 -0.016105022 0.43442234 -0.013569709 0.25073504 0.12898615 0.394491 -0.07514187
00000000: a203 a6bc 8ae3 3e3c 8aaf 83bc 78a9 a0bd
00000010: 87d7 cfbd feb4 47bd ad98 ebbd 6e20 083e
00000020: af91 04be 96e7 90bd d1fb 3b3e 1166 ee3c
00000030: 76a1 4f3e c271 db3d 5377 4bbd 4394 403a
00000040: 3722 09bd 883b ad3d 1043 ce3b e477 073e
00000050: 6c95 263e 5558 543d 5552 f13d c53e c93d
00000060: 28bc 73bd 296e 4bbe 804b 573e ba9f f4bd
00000070: e53c 783e 4a33 5f3d 1549 2a3e 6b80 bc3e
00000080: 63cb d9bc 87b1 a13e 646f eb3d f6a8 203c
00000090: 665e c03b 430a c1bd 5830 3e3d 4bec d63b
000000a0: 8dad 98bd ea53 d13d 5043 b53d f5d7 613d
000000b0: bc3a 4d3d ab82 953d 6f2a 993e 1e03 a23c
000000c0: 7664 483d 15a6 a23e a7f6 63bd 00a1 813c
000000d0: c1fc c9bd a034 433d 32f1 273e edea 1d3b
000000e0: 76ef f13b aeee 83bc 9b6c de3e 7c53 5ebc
000000f0: 5860 803e f214 043e b9fa c93e fbe3 99bd

fc3.weight f4 [32, 64]
0.23405817 -0.15608628 -0.5990131 0.11151677 -0.17410833 -0.030767463 -0.022916963 0.026957015
-0.10567258 -0.89053905 0.11616073 0.09042847 0.12414792 0.091872975 0.025968745 -0.05304996
-0.18598251 -0.024321534 0.07223496 0.0890775 0.083525755 -0.0042960015 0.15330398 0.019019095
-0.06675249 -0.08839983 0.08701202 -0.024114598 0.24206287 0.030169489 0.14766783 0.24499589
0.0023269316 0.045896813 0.19035332 0.2595283 0.3963435 -0.1814406 0.17128423 -0.37568188
-1.1049384 -0.01722933 0.17430915 -0.21449587 -0.15762445 0.23033856 0.22806261 0.015011397
0.066366665 0.08115712 -0.021583784 -0.1006724 -0.049950156 -0.07813302 0.24196249 0.24001929
-0.19414976 0.34906375 0.2400462 0.16977969 0.13667108 -0.08090174 0.12893538 0.006890745
-0.12127914 0.095917724 0.003682427 -0.08090246 0.023416022 -0.11078927 0.050816696 -0.03200303
-0.12193842 -0.018907178 -0.10234872 0.030034915 -0.023002636 0.06959219 -0.02496229 0.07979119
0.073447414 0.064119086 -0.11100233 -0.0039824974 -0.09432996 0.0052667065 -0.08477506 0.069822945
-0.010057135 -0.038474273 -0.09057004 0.11177092 0.044763964 0.0045877327 -0.10230265 -0.0768213
-0.0118622435 -0.04338791 0.0470887 -0.057094928 0.07480805 0.08559443 0.062326986 -0.018824091
-0.007548882 -0.046952534 -0.041021705 0.048688438 -0.0007805525 -0.09712835 -0.19693889 0.0087976325
-0.11656863 -0.013053748 -0.023831557 -0.06583848 -0.06287808 0.10737754 0.0479501 -0.014173133
0.09965865 -0.018650636 0.06577283 0.03328111 -0.13915867 0.043709766 -0.04597282 -0.0489215
-0.07441657 0.07128471 0.00044967627 0.093106754 -0.0854569 -0.07665569 -0.11621367 0.07805456
-0.023075726 0.036403682 -0.14510305 -0.010350595 -0.14612605 -0.06471567 -0.092330106 -0.015419687
-0.030044358 -0.10580477 0.0033780865 -0.12247892 0.03265138 0.06277168 0.01509673 -0.12796623
0.024453478 0.088066444 -0.029568335 0.11512609 -0.117599726 0.0042290725 -0.08045281 -0.05690453
0.038124077 0.000756332 -0.067109816 -0.06118926 -0.11300239 -0.08138897 0.096129015 -0.022347653
0.09688376 0.042043507 -0.025834436 -0.11228664 -0.045547422 0.11583906 -0.051580537 0.11479999
-0.099044934 0.08125774 0.06549635 0.04419285 -0.1081341 0.10641826 -0.12980284 -0.0124457795
-0.058200676 0.10856783 -0.08450911 -0.08322044 -0.092164166 -0.10577683 -0.047700707 -0.13518304
0.3456953 0.3856351 -0.05195268 -0.19972488 -0.37804183 -0.039095853 0.28726608 0.054944944
0.4542157 0.02911406 -0.08686042 -0.1747303 0.09435852 -0.16651407 -0.20534848 -0.24895145
-0.17026156 -0.4368634 -0.37296125 0.015723197 -0.10273791 -0.3135751 0.14522631 -0.13718177
0.18482341 -0.16049205 -0.41316235 0.5035333 0.06745948 -0.016408922 0.10243284 -0.05295305
0.068344235 -0.085172966 0.07924738 0.45446825 0.13820727 -0.23115306 -0.09844013 -0.27909148
0.28678662 -0.02015014 -0.3108485 -0.019497741 -0.286877 0.22819869 0.12253747 0.07843858
-0.34253836 -0.09932227 -0.17917143 -0.17483085 -0.055408612 -0.24290003 0.00033214904 0.06721176
0.28097713 0.60510254 -0.08357406 -0.56483626 0.06030266 -0.025981491 0.048526276 0.102369204
00000000: f2ac 6f3e 15d5 1fbe ec58 19bf e862 e43d
00000010: 7449 32be 0c0c fcbc 5bbc bbbc f5d4 dc3c
00000020: de6a d8bd 5efa 63bf ade5 ed3d 9032 b93d
00000030: 4441 fe3d e627 bc3d 68bc d43c ea4a 59bd
00000040: 3372 3ebe f43d c7bc ecef 933d 446e b63d
00000050: 8d0f ab3d 79c5 8cbb b8fb 1c3e efcd 9b3c
00000060: 88b5 88bd f80a b5bd 5c33 b23d fa8b c5bc
00000070: 54df 773e 0126 f73c 3c36 173e 34e0 7a3e
00000080: 6f7f 183b 4cfe 3b3d fbeb 423e e5e0 843e
00000090: 89ed ca3e 91cb 39be 2265 2f3e 6059 c0be
000000a0: 9f6e 8dbf 8624 8dbc 197e 323e cea4 5bbe
000000b0: 4e68 21be dfdd 6b3e 3f89 693e 5df2 753c
000000c0: 3feb 873d b435 a63d 7ad0 b0bc 552d cebd
000000d0: 8998 4cbd 3404 a0bd 04c5 773e 9ec7 753e
000000e0: 32cf 46be 7cb8 b23e acce 753e bada 2d3e
000000f0: 81f3 0b3e d0af a5bd a307 043e c2cb e13b
00000100: 3361 f8bd 8370 c43d e054 713b 30b0 a5bd
00000110: f5d2 bf3c 7ce5 e2bd 2b25 503d 9c15 03bd
00000120: daba f9bd 3ae3 9abc 359c d1bd c80b f63c
00000130: 0670 bcbc 5a86 8e3d b77d ccbc 9069 a33d
00000140: 996b 963d de50 833d 3155 e3bd 9c7f 82bb
00000150: 1130 c1bd 5694 ac3b 8c9e adbd 55ff 8e3d
00000160: aec6 24bc 3397 1dbd c97c b9bd 27e8 e43d
00000170: 6b5a 373d b154 963b 0d84 d1bd 7c54 9dbd
00000180: db59 42bc 85b7 31bd 15e0 403d 5fdc 69bd
00000190: f734 993d 224c af3d 954a 7f3d fb34 9abc
000001a0: 9d5c f7bb 4d51 40bd 6006 28bd 876d 473d
000001b0: fe9d 4cba 3aeb c6bd 59aa 49be f223 103c
000001c0: 89bb eebd 63df 55bc 663a c3bc 53d6 86bd
000001d0: 39c6 80bd c1e8 db3d 5367 443d 6e36 68bc
000001e0: d619 cc3d 38c9 98bc e8b3 863d c651 083d
000001f0: 9c7f 0ebe 0309 333d ff4d 3cbd e961 48bd
00000200: b767 98bd b8fd 913d 87c2 eb39 c1ae be3d
00000210: 0704 afbd a9fd 9cbd 6f01 eebd 12db 9f3d
00000220: 4e09 bdbc 071c 153d e595 14be 8b95 29bc
00000230: 11a2 15be a689 84bd 9117 bdbd dba2 7cbc
00000240: 961f f6bc 2cb0 d8bd e362 5d3b 3ad6 fabd
00000250: 74bd 053d 708e 803d 4658 773c 9409 03be
00000260: a952 c83c 2e5c b43d 4b39 f2bc 3ac7 eb3d
00000270: 20d8 f0bd 0894 8a3b 71c4 a4bd b914 69bd
00000280: fe27 1c3d 9544 463a df70 89bd 97a1 7abd
00000290: cc6d e7bd 43af a6bd 4adf c43d 6d12 b7bc
000002a0: fe6a c63d d035 2c3d bda2 d3bc 8af6 e5bd
000002b0: ef8f 3abd 073d ed3d 1d46 53bd 421c eb3d
000002c0: 12d8 cabd 756a a63d f322 863d 9003 353d
000002d0: 6975 ddbd d1f1 d93d 09eb 04be 62e9 4bbc
000002e0: d563 6ebd cf58 de3d 1d13 adbd 7a6f aabd
000002f0: 91c0 bcbd 86a1 d8bd d161 43bd 6c6d 0abe
00000300: f9fe b03e f771 c53e 55cc 54bd ae84 4cbe
00000310: b38e c1be f922 20bd 8a14 933e f30d 613d
00000320: f68e e83e 9c80 ee3c e0e3 b1bd 80ec 32be
00000330: 0a3f c13d aa82 2abe df46 52be 21ed 7ebe
00000340: 0c59 2ebe 8fac dfbe c7f4 bebe efcd 803c
00000350: 4168 d2bd ea8c a0be 35b6 143e 6179 0cbe
00000360: 5942 3d3e 0758 24be 048a d3be 8fe7 003f
00000370: 3228 8a3d 016c 86bc 4fc8 d13d 4ce5 58bd
00000380: 10f8 8b3d 2a6f aebd 734c a23d 10b0 e83e
00000390: 3586 0d3e 63b3 6cbe fb9a c9bd 14e5 8ebe
000003a0: b2d5 923e e811 a5bc 8927 9fbe bab9 9fbc
000003b0: 8be1 92be ebac 693e edf4 fa3d 68a4 a03d
000003c0: 3061 afbe 7969 cbbd b778 37be dc06 33be
000003d0: 24f4 62bd c9ba 78be 4a24 ae39 52a6 893d
000003e0: 3cdc 8f3e 00e8 1a3f e028 abbd 1c99 10bf
000003f0: ecff 763d 23d7 d4bc 7dc3 463d f2a6 d13d

fc3.bias f4 [32]
0.48792922 -0.16475485 0.0062751113 0.2510557 -0.11051084 0.3119787 0.27679715 0.15893649
-0.14296351 -0.27960902 -0.12369798 0.06966935 -0.10927065 0.48637342 -0.19088358 -0.050213315
-0.014375844 -0.017740969 0.06486544 0.08906477 0.10885677 0.18087922 0.045992132 0.31245193
-0.34702477 -0.20583735 -0.1096481 -0.050842572 0.043309722 0.16380903 -0.06539636 0.35865474
00000000: dcd1 f93e 7fb5 28be 739f cd3b 5f8a 803e
00000010: 8253 e2bd acbb 9f3e 5bb8 8d3e 3fc0 223e
00000020: 0765 12be ea28 8fbe 5e55 fdbd ceae 8e3d
00000030: 4ac9 dfbd f005 f93e fc76 43be 7aac 4dbd
00000040: a988 6bbc 8255 91bc 2cd8 843d 9767 b63d
00000050: 4cf0 de3d 6738 393e 3f62 3c3d b3f9 9f3e
00000060: 3bad b1be 07c7 52be 2f8f e0bd 4d40 50bd
00000070: 8965 313d 8ebd 273e 87ee 85bd 98a1 b73e

fc4.weight f4 [4, 32]
0.18934831 0.1983816 -0.11170267 0.3838509 -0.15679766 0.03750836 0.29312563 0.19528206
0.34638247 -0.292437 -0.13083757 0.15405294 -0.15828681 0.26082134 -0.30184472 -0.13866156
0.35511294 0.24462618 0.063506395 0.02530143 0.24665135 0.23559147 0.18574141 0.17146322
-0.21003519 -0.15694256 -0.82361734 -0.0033621064 -0.11657755 0.29030222 -0.06561683 0.29886693
0.28176853 -0.02847518 -0.15490013 0.30030963 -0.31223604 0.21360266 0.22601217 0.09715237
0.19721237 -0.28328618 -0.1473955 0.31380937 0.08364628 0.18492436 0.030432357 -0.1854992
-1.0777141 0.5332288 0.18259884 0.037400186 0.3304029 0.13258487 0.30566016 0.35931525
-0.12818415 -0.1529591 0.030592678 -0.014053367 -0.11079716 0.3281791 0.13904905 0.11394323
0.36419427 -0.10228632 0.009452476 0.0029595564 -0.12420282 0.18077981 0.19060223 0.018293528
0.5749265 -0.19018756 0.11361683 0.5071353 -0.14021622 0.40868938 0.38070694 -0.41241753
-0.37905362 -0.3688859 0.53253865 0.25051144 -0.19602369 0.27277946 0.24513409 0.10861885
0.12385395 -0.19005127 -0.7571017 -0.09896021 -0.0530553 0.13893387 -0.06400022 0.06475057
0.01837232 -0.046694353 0.11784061 0.36240304 -0.48161352 0.3429374 0.3183596 0.09582186
0.8475633 -0.12748842 0.18625697 -0.08389143 0.07948558 0.30264044 -1.0688726 -0.23087336
-0.26335016 0.10542315 0.29129878 -0.019473262 0.18627447 0.19070186 0.30409944 -0.008926913
-0.27886158 0.15090269 -0.3360005 0.07586314 -0.085283086 0.035704706 0.2985034 0.2649613
00000000: 86e4 413e 8c24 4b3e 5fc4 e4bd 1b88 c43e
00000010: 918f 20be 5ea2 193d 9014 963e 05f8 473e
00000020: 0b59 b13e 4dba 95be 49fa 05be 0ec0 1d3e
00000030: f015 22be 608a 853e 648b 9abe 4cfd 0dbe
00000040: 5dd1 b53e 497f 7a3e a40f 823d f244 cf3c
00000050: 2c92 7c3e e43e 713e ff32 3e3e 0e94 2f3e
00000060: 7713 57be 8db5 20be 96d8 52bf c956 5cbb
00000070: 36c0 eebd 7ea2 943e 1e62 86bd 1605 993e
00000080: f743 903e c844 e9bc 249e 1ebe 2fc2 993e
00000090: 67dd 9fbe a8ba 5a3e bc6f 673e d2f7 c63d
000000a0: 0af2 493e e30a 91be d9ee 16be 9fab a03e
000000b0: be4e ab3d d05c 3d3e 474d f93c 81f3 3dbe
000000c0: 89f2 89bf af81 083f 31fb 3a3e f030 193d
000000d0: 922a a93e 54c4 073e 7d7f 9c3e 2bf8 b73e
000000e0: b542 03be 4fa1 1cbe 7f9d fa3c 1840 66bc
000000f0: 9fe9 e2bd 1707 a83e e062 0e3e 115b e93d
00000100: ac77 ba3e 7d7b d1bd 8fde 1a3c 1ef5 413b
00000110: 0c5e febd 581e 393e 3b2d 433e 4fdc 953c
00000120: 622e 133f 87c0 42be f1af e83d 9ed3 013f
00000130: d794 0fbe bc3f d13e 05ec c23e 6428 d3be
00000140: 5113 c2be 9dde bcbe 7454 083f 0943 803e
00000150: 6fba 48be c0a9 8b3e 6e04 7b3e 8f73 de3d
00000160: 24a7 fd3d cd9c 42be 6bd1 41bf a7ab cabd
00000170: 8450 59bd ae44 0e3e 8c12 83bd f29b 843d
00000180: 8c81 963c 9442 3fbd 6b56 f13d e48c b93e
00000190: 0c96 f6be 7e95 af3e 0800 a33e 403e c43d
000001a0: e9f9 583f 538c 02be 26ba 3e3e 45cf abbd
000001b0: 56c9 a23d b0f3 9a3e d1d0 88bf 116a 6cbe
000001c0: d5d5 86be 18e8 d73d 1d25 953e 6486 9fbc
000001d0: bcbe 3e3e 5947 433e ecb2 9b3e 3042 12bc
000001e0: f2c6 8ebe 3c86 1a3e 4208 acbe 225e 9b3d
000001f0: e6a8 aebd 193f 123d 70d5 983e 02a9 873e

fc4.bias f4 [4]
0.51181984 0.22885741 0.2596864 0.5132326
00000000: a006 033f 9959 6a3e 9ef5 843e 3663 033f
