models/m3.pth (torch, 63631 bytes, 8 tensors)

fc1.weight f4 [128, 37]
0	0xbd699d5e	-0.057034843
1	0xbe6a8243	-0.22901253
2	0xbdcdbc7f	-0.100457184
3	0xbe44cc03	-0.1921845
4	0x3e02be81	0.12767984
5	0x3daec65a	0.08533926
6	0xbcc3db25	-0.023908207
7	0xbe1f8494	-0.15577918
8	0x3e8a1094	0.26965773
9	0xbe5e2e0d	-0.21697254
10	0x3eeb0bdf	0.45907494
11	0xbe3a7704	-0.18209463
12	0xbecd0dab	-0.4004949
13	0xbed1e039	-0.4099138
14	0xbf985779	-1.1901695
15	0xbd81eefb	-0.0634441
16	0xbeb44c95	-0.35214677
17	0x3d916af6	0.07100479
18	0x3db4a27d	0.08820055
19	0xbd64e6d7	-0.05588421
20	0xbc6f9ac3	-0.0146243
21	0x3eb67c79	0.3564184
22	0xbe412044	-0.18859965
23	0xbe70bb77	-0.23509012
24	0xbf6b8185	-0.91994506
25	0xbf01786b	-0.5057437
26	0xbe11b6d8	-0.14229906
27	0x3e0b90d5	0.13629468
28	0xbd27905e	-0.040909164
29	0x3e5bd4c9	0.2146789
30	0x3ded375b	0.11582824
31	0xbe400051	-0.1875012
32	0xbdc7b2db	-0.09750911
33	0x3e83b76e	0.25725883
34	0xbe93adb7	-0.2884347
35	0x3e12b9b4	0.14328653
36	0xbd01b232	-0.03166408
37	0x3db57fd2	0.088622704
38	0x3df1887a	0.11793609
39	0x3d934cb0	0.07192361
40	0x3dfa23dc	0.12213871
41	0x3d84f498	0.06491965
42	0x3eb73059	0.35779074
43	0xbf70c866	-0.94055784
44	0xbf5d90b1	-0.86548907
45	0xbf659cd2	-0.89692414
46	0xbff389f3	-1.9026474
47	0x3e3c706d	0.18402262
48	0x3e157df2	0.14598826
49	0x3e5fab1d	0.21842618
50	0x3d997734	0.07493439
51	0x3d9ba944	0.07600644
52	0x3e06f868	0.13180697
53	0x3e1e30c5	0.15448292
54	0x3df13733	0.117781065
55	0x3e34fd27	0.17674695
56	0xbce976cc	-0.02849903
57	0x3d787fd7	0.060668793
58	0x3e208c83	0.15678601
59	0x3e2d247a	0.16908446
60	0x3e66299b	0.22476809
61	0x3de991d1	0.114047654
62	0x3d2beed6	0.04197582
63	0x3d80e029	0.06292755
64	0x3dab83c8	0.08374745
65	0x3e04e085	0.12976272
66	0x3d85e721	0.06538225
67	0x3daef42e	0.08542667
68	0x3d940186	0.07226853
69	0x3d8dba9f	0.06920361
70	0x3df0b012	0.11752333
71	0xbdf943b4	-0.121711165
72	0xbc9fc42c	-0.019502722
73	0x3b21d148	0.0024691392
74	0x3e2672da	0.1625475
75	0x3eddb584	0.43302548
76	0xbdb748ed	-0.08949456
77	0xbebd46c5	-0.36968055
78	0xbfaa8d1a	-1.3324311
79	0xbda49c54	-0.0803763
80	0xbe62a712	-0.22134045
81	0xbc2f9db1	-0.010718749
82	0x3dc43db9	0.09582085
83	0x3df6fc3b	0.12059828
84	0x3d47f9ed	0.048822332
85	0x3e01b9c0	0.12668514
86	0x3d960514	0.07325187
87	0xbe0f2d8f	-0.13982223
88	0x3e39af29	0.18133225
89	0x3d41ac4f	0.047283467
90	0xbe65b5b0	-0.2243259
91	0x3e4cdeb3	0.20006828
92	0xbe3d0c82	-0.18461803
93	0xbebf5057	-0.37365982
94	0x3ca13036	0.01967631
95	0x3ebe74d2	0.37198502
96	0xbb91e0a7	-0.0044518295
97	0xbd009f3c	-0.031401858
98	0xbef283a8	-0.4736607
99	0x3d5c371f	0.053763505
100	0xbe58574c	-0.21127051
101	0x3e1c9c19	0.15293922
102	0x3dbb23aa	0.09137662
103	0x3e388c14	0.18022186
104	0xbe1daf30	-0.1539886
105	0x3e74bfe1	0.23901321
106	0x3e5ab2c4	0.21357256
107	0xbf12ae22	-0.57296956
108	0xbf6036d4	-0.8758366
109	0x3d0ce511	0.034398142
110	0xbbd5ac5c	-0.006520791
111	0x3d82b81e	0.06382774
112	0x3de7dd2a	0.113214806
113	0x3da626d2	0.08112873
114	0x3df69a8e	0.12041198
115	0x3cb7ddc8	0.02244462
116	0x3d648557	0.055791225
117	0x3dc3f715	0.095686115
118	0x3dfb23b4	0.12262669
119	0x3e056bb5	0.13029368
120	0x3c8726fa	0.016498078
121	0x3d4211c6	0.04738023
122	0x3d6ef9f8	0.058343858
123	0x3da884aa	0.08228429
124	0x3daa30a8	0.08310062
125	0x3c84abbc	0.01619517
126	0x3f00f3c0	0.50371933
127	0xbf2c912b	-0.6740901
128	0xbeee252a	-0.4651273
129	0xbf40039c	-0.7500551
130	0xc04733a0	-3.112526
131	0x3ccc488d	0.024936939
132	0x3d823d49	0.063593455
133	0x3d6e8912	0.05823619
134	0x3d96a355	0.07355372
135	0x3c892333	0.016740417
136	0x3d0c03ff	0.0341835
137	0x3d6b8973	0.05750413
138	0x3d8a4df9	0.06753153
139	0x3e111684	0.14168745
140	0x3e2de9be	0.16983697
141	0x3b8eaa82	0.004353822
142	0x3daaf538	0.08347553
143	0x3da760ee	0.08172785
144	0x3d88d081	0.06680394
145	0xbc421c90	-0.01184763
146	0x3c0c7351	0.008572415
147	0xbb81645c	-0.0039487313
148	0xbc8dbcb4	-0.017301895
149	0xbead3333	-0.33828124
150	0x3e68ddc3	0.22740845
151	0xbe86b306	-0.2630846
152	0x3e29e68b	0.16591851
153	0xbc66aae5	-0.01407883
154	0x3e4c487e	0.19949529
155	0x3e957040	0.29187202
156	0xbc9e4026	-0.019317698
157	0xbf120781	-0.570427
158	0xbdca6dcd	-0.09884224
159	0x3e5eaf92	0.21746662
160	0x3da0e235	0.078556456
161	0xbf11207b	-0.56690186
162	0xbe3de98c	-0.18546122
163	0x3b33168f	0.0027326678
164	0xbe74484c	-0.23855704
165	0xbe8be14c	-0.27320325
166	0x3d8e5843	0.06950428
167	0x3e43c2e1	0.19117309
168	0x3d3e17ca	0.046409406
169	0xbf02615b	-0.509298
170	0xbcba9a0a	-0.02277853
171	0x3e5c67ce	0.21523973
172	0x3ea8f3e7	0.32998583
173	0xbe2c53f9	-0.16828908
174	0x3cff3b58	0.031156227
175	0x3e8a41a3	0.27003202
176	0xbdc821b1	-0.09772051
177	0xbf6349e8	-0.88784647
178	0xbdec2326	-0.115301415
179	0x3d095011	0.033523623
180	0x3da595df	0.08085226
181	0xbf00e9b1	-0.50356585
182	0xbe7f1a2d	-0.24912329
183	0xbd09914c	-0.03358583
184	0x3ce865f4	0.028368928
185	0xbdf98424	-0.12183407
186	0x3cda1f7d	0.026626343
187	0x3ed7d54e	0.42154926
188	0xbedbc52c	-0.42923868
189	0xbdd810c1	-0.105500706
190	0x3d813d79	0.06310553
191	0x3cdb7178	0.026787505
192	0xbdd725a9	-0.1050523
193	0xbe7b6915	-0.24551804
194	0xbe142ee5	-0.14471014
195	0xbe9756ad	-0.29558316
196	0x3e94297d	0.28937903
197	0xbe856f8c	-0.26061666
198	0xbccaa628	-0.024737433
199	0xbe7f009b	-0.24902575
200	0x39670ae9	0.00022033941
201	0xbd722b90	-0.059123576
202	0x3e975169	0.295543
203	0xbed6cbfb	-0.419525
204	0x3dbae262	0.0912521
205	0xbc42d208	-0.011890896
206	0xbe205d5d	-0.15660615
207	0x3e546df8	0.20745075
208	0xbe287c18	-0.16453588
209	0xbebeeee4	-0.37291634
210	0x3e2a4819	0.16629066
211	0x3e4326a1	0.19057705
212	0xbee6f618	-0.4510963
213	0x3d817438	0.06320995
214	0xbe93f242	-0.28895766
215	0xbead5ed3	-0.33861408
216	0xbeb3acb2	-0.35092694
217	0x3de41aee	0.11137949
218	0x3e896ab5	0.26839224
219	0xbf42c431	-0.76080614
220	0x3dcb5348	0.09927994
221	0xbd8c7bc8	-0.06859547
222	0xbd6a3c30	-0.057186306
223	0x3d5c05a3	0.053716313
224	0xbe0d3660	-0.13790274
225	0x3dd56b02	0.10420801
226	0x3debfec8	0.11523205
227	0x3e30e0fc	0.17273325
228	0xbc3c1455	-0.011479457
229	0xbc99719d	-0.018730933
230	0xbee97126	-0.45594138
231	0xbed0cefe	-0.40782923
232	0x3b0b4352	0.0021249843
233	0x3d6724c5	0.05643155
234	0xbd35a2e5	-0.0443448
235	0x3de722ef	0.1128596
236	0x3e54e135	0.20789035
237	0x3d373159	0.044724796
238	0xbdefdb5a	-0.1171176
239	0x3dbabcaf	0.0911802
240	0xbd64ff5e	-0.0559076
241	0x3d7ffd82	0.062497623
242	0x3d10e3d8	0.03537354
243	0xbe31ac39	-0.17350854
244	0x3da53778	0.080672204
245	0x3cbe95fd	0.02326488
246	0x3ed8cae5	0.42342296
247	0x3dfcc750	0.12342703
248	0x3cb9c641	0.022677543
249	0xbdc4a874	-0.096024424
250	0xbee90727	-0.4551327
251	0x3dfa3a55	0.12218157
252	0x3cd6d114	0.026222743
253	0x3e2caa96	0.16861948
254	0xbe1ee193	-0.15515737
255	0x3dab138c	0.08353338

fc1.bias f4 [128]
0	0x3e0bb27c	0.13642305
1	0x3c426907	0.011865861
2	0x3e2a029d	0.1660256
3	0x3d4bfc8b	0.04980139
4	0xbe499e62	-0.19689324
5	0x3c934f04	0.017982014
6	0xbdcf369b	-0.10117837
7	0xbdbd4871	-0.09242333
8	0xbe14738c	-0.14497203
9	0x3e270d29	0.16313614
10	0xbd70dfe5	-0.058807272
11	0x3e2b21f1	0.16712166
12	0x3e88d918	0.2672813
13	0x3d2ed10b	0.042679828
14	0x3ce1f248	0.027581349
15	0x3ab94448	0.0014134729
16	0x3e248b5b	0.16068785
17	0x3d99727d	0.0749254
18	0x3d688aaa	0.056772865
19	0xbe78588c	-0.24252528
20	0xbd280fe9	-0.041030798
21	0xbbf55445	-0.0074868524
22	0x3d9ae57f	0.07563304
23	0xbe3e9c1a	-0.18614236
24	0x3e38c849	0.18045153
25	0xbe8b395a	-0.27192193
26	0xbe20e17a	-0.15711012
27	0xbdf8d037	-0.12149089
28	0xbd6070c8	-0.054795057
29	0x3e3d76c4	0.18502337
30	0x3dba74fe	0.09104346
31	0x3dbc78df	0.09202742
32	0x3d862dc9	0.065517016
33	0xbe0411cf	-0.12897418
34	0xbe4de2d9	-0.20106067
35	0xbd03ed86	-0.032208942
36	0xbe4ea71b	-0.20180933
37	0x3ce49043	0.02790082
38	0xbe0fa4a8	-0.14027655
39	0xbafd31af	-0.0019317175
40	0xbec6f9b9	-0.38862398
41	0xbe168c62	-0.1470199
42	0x3d7aa139	0.06118891
43	0x3d97d92c	0.07414469
44	0xbe45b07b	-0.19305603
45	0xbe357193	-0.17719106
46	0xbd83bbd0	-0.06432307
47	0xbcd8fb25	-0.026486943
48	0xbe06698d	-0.13126202
49	0x3ccdb644	0.025111325
50	0x3e001c7a	0.12510863
51	0xbe1566a0	-0.1458993
52	0x3e909ae2	0.28243166
53	0xbd56ab5a	-0.052409507
54	0xbdae5fcc	-0.085143656
55	0xbe315d11	-0.17320658
56	0xbdb0650f	-0.086130254
57	0x3d7c9301	0.06166363
58	0xbc449ee1	-0.01200077
59	0xbe1ff573	-0.15620975
60	0x3bb0b65c	0.0053928327
61	0x3d4aedce	0.049543194
62	0x3d5825f1	0.05277056
63	0xbd6b8484	-0.057499424
64	0x3e3305fe	0.17482755
65	0xbe22fb79	-0.15916242
66	0x3c8d5d71	0.01725647
67	0x3cbbbb20	0.022916377
68	0x3d3247b9	0.04352543
69	0xbb2b3055	-0.0026121337
70	0x3d30a6dc	0.04312788
71	0x3e8bcf82	0.27306753
72	0x3e1e7636	0.15474781
73	0x3bf5c067	0.007499743
74	0xbe41fb01	-0.18943407
75	0x3df2dd79	0.11858649
76	0xbcaa8b7b	-0.020818463
77	0x3daf21f2	0.085513964
78	0xbe1893ee	-0.1490018
79	0x3df379ee	0.118884906
80	0x3dc36af2	0.095418826
81	0xbd0251b7	-0.03181621
82	0xbe0e746d	-0.139116
83	0xbd5339ff	-0.05156898
84	0x3d812bf5	0.06307212
85	0x3d8c995f	0.06865191
86	0xbd6e5351	-0.058184925
87	0x3ac7f746	0.0015256188
88	0x3e25a3b5	0.1617573
89	0xbdac61f0	-0.084171176
90	0x3ceb42b1	0.028718324
91	0xbd8bcac2	-0.06825782
92	0x3dc91bd6	0.098197624
93	0x3c941e19	0.018080758
94	0xbb491f30	-0.0030688755
95	0x3dbb9730	0.09159696
96	0xbd0b390b	-0.033989947
97	0x3dd75cdd	0.10515759
98	0xbe2f5ab7	-0.17124449
99	0xbe17efca	-0.14837566
100	0xbe7e5b30	-0.24839473
101	0xbe01ed05	-0.12688072
102	0xbd386e60	-0.045027137
103	0x3d8b9806	0.068161055
104	0x3d2d3e70	0.042295873
105	0xbddb6949	-0.10713441
106	0xbe161a91	-0.14658572
107	0x3bf0574a	0.0073346244
108	0x3ec1005d	0.3769559
109	0xbe0e4473	-0.13893299
110	0xbe2d2758	-0.1690954
111	0x3cef6046	0.029220711
112	0xbd7212dc	-0.059100017
113	0xbd2ad2f0	-0.041705072
114	0xbc6260ff	-0.013817071
115	0x3d7772cb	0.06041221
116	0x3d77f735	0.06053849
117	0xbbbffa10	-0.005858667
118	0x3e1081c2	0.14111999
119	0x3e21aa98	0.15787733
120	0xbe560172	-0.20898989
121	0xbd37aafc	-0.044840798
122	0xbef8f6a1	-0.48625663
123	0x3e28cac3	0.16483597
124	0x3e383cff	0.17992018
125	0x3db4cd7a	0.08828254
126	0xbe00b80a	-0.12570205
127	0xbd9aa0b6	-0.075501844

fc2.weight f4 [64, 128]
0	0x3e6b4ce7	0.22978555
1	0xbe0c42e3	-0.1369739
2	0x3e297b73	0.16550998
3	0xbf168233	-0.5879242
4	0x3d04ed7d	0.03245305
5	0xbd2b1c9c	-0.04177533
6	0x3e6e70e9	0.2328526
7	0xbe71ed40	-0.2362566
8	0xbdcc2bac	-0.09969267
9	0x3e248611	0.16066767
10	0xbe181603	-0.14852147
11	0x3dd62c63	0.10457685
12	0x3d53b125	0.05168261
13	0x3ead483d	0.33844176
14	0x3decfef0	0.11572063
15	0xbc4b72e8	-0.0124175325
16	0x3f021509	0.5081335
17	0xbc8504ea	-0.016237695
18	0x3d569150	0.052384675
19	0xbf31e1a1	-0.6948491
20	0xbf47c5ff	-0.78036493
21	0x3df0d340	0.11759043
22	0xbe217707	-0.15768062
23	0xbdf9ebff	-0.12203216
24	0x3dd7cf1e	0.10537551
25	0xbe6732dc	-0.22577995
26	0xbed55f0a	-0.41674072
27	0xbe82add9	-0.2552326
28	0xbf15b6e6	-0.58482206
29	0x3dce25e3	0.1006582
30	0x3d9c90f4	0.07644835
31	0x3e8c7722	0.2743464
32	0xbcf41e00	-0.029799461
33	0xbdb1b016	-0.08676164
34	0xbdceb3fc	-0.10092923
35	0xbecc6a2d	-0.39924756
36	0x3d5c1cd5	0.053738434
37	0xbda2280d	-0.07917795
38	0xbd9dd600	-0.07706833
39	0x3db83c1c	0.0899584
40	0xbeb6f98f	-0.35737273
41	0x3deb6e00	0.1149559
42	0xbe37631d	-0.17908902
43	0x3e224829	0.1584784
44	0x3e4870ba	0.19574252
45	0xbefac798	-0.48980403
46	0x3e9ac352	0.30227143
47	0xbdfe9bf1	-0.12432087
48	0x3e416409	0.18885817
49	0xbea04ed9	-0.31310156
50	0xbd0f4673	-0.034979295
51	0x3cdee35b	0.02720802
52	0xb9ca875d	-0.00038629296
53	0xbed78c83	-0.4209939
54	0x3c025fde	0.007957427
55	0xbe8a8228	-0.27052426
56	0x3e8a68bc	0.2703303
57	0x3e9ea572	0.309856
58	0x3e5c3a20	0.21506548
59	0x3c0918cb	0.0083677275
60	0x3df4e40b	0.11957558
61	0x3dd2b6fa	0.10288806
62	0x3ce70d25	0.02820451
63	0xbe6b848f	-0.22999786
64	0x3e04be93	0.12963323
65	0xbe5886a1	-0.21145107
66	0xbda5a606	-0.08088307
67	0x3e0d57c3	0.1380301
68	0x3ebf5b9c	0.3737458
69	0xbe8d110f	-0.27552077
70	0xbdeffaaa	-0.11717732
71	0xbca32d1f	-0.019918976
72	0xbee8dbb9	-0.45480135
73	0x3d8d897b	0.06910988
74	0x3b76ab42	0.0037638699
75	0x3eb5bcfe	0.35495752
76	0xbe804536	-0.25052804
77	0xbf2b06e5	-0.66807395
78	0xbd350831	-0.044197265
79	0xbed3e9e8	-0.41389394
80	0xbddfc244	-0.10925725
81	0xbdab6d8d	-0.083705045
82	0xbe1d3241	-0.15351202
83	0xbe3b4d6e	-0.18291256
84	0xbd0de5ee	-0.034643106
85	0xbd678e7c	-0.056532368
86	0xbe8440a4	-0.25830567
87	0xbd7dc713	-0.06195743
88	0x3db11dd1	0.08648265
89	0x3e05832e	0.13038322
90	0xbe94edcc	-0.29087675
91	0x3e8e8216	0.27833623
92	0x3d3418eb	0.043969076
93	0x3dd772c6	0.10519938
94	0x3e381485	0.17976578
95	0x3da0dde4	0.07854822
96	0xbdf50f41	-0.119658
97	0x3e1fd3b0	0.15608096
98	0xbe9674d1	-0.29386
99	0xbcf8c55d	-0.030367548
100	0x3e3000a0	0.17187738
101	0x3e140b27	0.1445738
102	0x3dd55f8a	0.10418613
103	0x3e8f95d8	0.2804401
104	0xbcc49ddb	-0.024001053
105	0x39fa3246	0.00047721172
106	0xbf0c6990	-0.54848576
107	0x3f18ef7d	0.5974043
108	0xbdb52529	-0.08844978
109	0x3ea8bddb	0.32957348
110	0x3e7107ab	0.23538081
111	0xbe3dd466	-0.18538055
112	0xbe079e9e	-0.13244101
113	0x3eaddc6e	0.33957237
114	0x3e9e0bca	0.3086837
115	0x3dfed6b6	0.124432966
116	0xbd29a06f	-0.041412767
117	0xbe440aca	-0.1914474
118	0x3e13d940	0.14438343
119	0xbe91db64	-0.28487694
120	0xbe2f26a6	-0.17104587
121	0x3c65a6b3	0.014016795
122	0x3ddec4de	0.10877393
123	0xbd87e95e	-0.06636308
124	0x3de5edd8	0.11227006
125	0x3e5300cd	0.20605774
126	0xbf29da38	-0.663486
127	0xbec7c2e7	-0.39015886
128	0xbe603c73	-0.2189806
129	0xbe373619	-0.1789173
130	0x3e617a0c	0.22019213
131	0x3dfabe31	0.122433074
132	0x3f0ae173	0.5425026
133	0xbe2db189	-0.16962256
134	0xbe46b973	-0.19406681
135	0x3e0cfcd6	0.13768324
136	0x3e8234e8	0.2543099
137	0x3e35b16a	0.1774346
138	0xbebf7f65	-0.37401882
139	0x3e73488e	0.23758146
140	0x3dcbbd2d	0.09948192
141	0x3d8d5f35	0.06902925
142	0xbea70d08	-0.3262713
143	0xbce8bae0	-0.028409421
144	0x3c7b592b	0.0153410835
145	0xbe485384	-0.19563109
146	0xbea0b02f	-0.31384417
147	0x3e89f6b5	0.26946035
148	0xbecd43f7	-0.40090916
149	0x3c66d4a6	0.014088785
150	0x3d5ca5f9	0.05386922
151	0x3d557882	0.05211688
152	0xbde18bf7	-0.11013024
153	0xbd6459ef	-0.05574983
154	0xbec0ffd5	-0.37695184
155	0x3e6c61e1	0.23084213
156	0xbde2c211	-0.110721715
157	0xbc7c5590	-0.015401259
158	0x3db5e5cb	0.0888172
159	0x3e53e054	0.20691043
160	0x3e4a15c4	0.19734865
161	0x3e5c411e	0.21509215
162	0x3e2023eb	0.15638702
163	0x3c8d0121	0.017212452
164	0xbef3a8a2	-0.47589594
165	0x3dc29a31	0.09502066
166	0xbed12145	-0.40845695
167	0xbe09a2c8	-0.13441002
168	0xbf282ac4	-0.65690255
169	0xbf3b0ab8	-0.7306323
170	0x3e32e3ee	0.17469761
171	0xbd4860e4	-0.048920527
172	0x3ede2b45	0.43392387
173	0xbe5dd258	-0.21662271
174	0xbeaa31c4	-0.33241093
175	0xbd8f8b0f	-0.07008945
176	0x3e88c717	0.26714393
177	0x3edc5aed	0.4303812
178	0xbd1fa59e	-0.038976304
179	0x3de8e793	0.11372294
180	0xbd400dd2	-0.04688818
181	0xbe1a4cb4	-0.15068322
182	0xbf0a8c47	-0.54120296
183	0x3de21d9f	0.11040806
184	0xbe2b629c	-0.16736835
185	0xbec96947	-0.39338133
186	0x3dd9ae11	0.10628904
187	0x3e8c146d	0.27359334
188	0xbe8b7c7d	-0.27243415
189	0x3e71edc4	0.23625857
190	0x3d2f79b3	0.04284067
191	0xbe1c1a90	-0.15244508
192	0x3e2b4e0c	0.16728991
193	0xbd4b6ada	-0.04966245
194	0x3b0429ad	0.0020166442
195	0xbd9d2c7b	-0.076744996
196	0xbe901056	-0.28137463
197	0x3e2dc101	0.16968156
198	0xbeec72b9	-0.46181276
199	0xbd730557	-0.059331264
200	0x3d874fe5	0.066070355
201	0xbeb64846	-0.35602015
202	0x3dced1f6	0.100986406
203	0xbe90886c	-0.28229082
204	0x3e1f4839	0.15554895
205	0xbcbcfa0f	-0.023068456
206	0xbebf4717	-0.37358925
207	0xbf114fcd	-0.5676239
208	0x3eb12bed	0.34603825
209	0xbc282a33	-0.010263967
210	0xbe9a8b4a	-0.30184394
211	0xbd273c78	-0.040829152
212	0xbbb9a45c	-0.005665345
213	0xbe3fee78	-0.18743312
214	0xbed67104	-0.418831
215	0x3da44351	0.08020652
216	0x3daeb9a8	0.08531505
217	0x3cf55dc3	0.029951936
218	0xbdd36a5c	-0.10323021
219	0xbedc96ab	-0.430837
220	0x3ec62e60	0.38707256
221	0x3ba7adad	0.0051171393
222	0x3cdd492c	0.02701243
223	0x3cd99ed1	0.026564987
224	0xbe906ae8	-0.28206563
225	0x3e87d01b	0.2652596
226	0x3e9ebaef	0.31001994
227	0x3c70160c	0.014653694
228	0x3d6175f1	0.05504412
229	0xbcc3c4e6	-0.0238976
230	0xbe82933b	-0.25502953
231	0xbdaa3b6b	-0.08312114
232	0xbe3f3f2c	-0.18676442
233	0x3d806780	0.06269741
234	0xbf3d9a57	-0.7406363
235	0xbe66d0cb	-0.22540586
236	0xbab02939	-0.001344002
237	0x3e71f71e	0.23629424
238	0xbcd68e3e	-0.026190873
239	0xbdd03a42	-0.10167362
240	0x3cf42c16	0.029806178
241	0x3d3a5b73	0.04549737
242	0x3e8032b6	0.2503869
243	0x3e42dae6	0.19028816
244	0xbf4c3b91	-0.7977839
245	0xbe75e1db	-0.24011938
246	0x3df6ec40	0.1205678
247	0x3c36c0d5	0.011154373
248	0xbeb3ad33	-0.35093078
249	0xbf48bcc2	-0.7841302
250	0xbea87681	-0.3290291
251	0xbd5be003	-0.05368043
252	0x3de5c020	0.112182856
253	0x3e16284c	0.1466381
254	0xbe164905	-0.14676292
255	0x3ef2b6ec	0.47405183

fc2.bias f4 [64]
0	0x3aeb2ba3	0.0017942082
1	0xbd31b793	-0.04338796
2	0xbd80f711	-0.06297124
3	0x3e7410e1	0.23834564
4	0x3e7dfc88	0.24803364
5	0x3e6f4f72	0.2337015
6	0x3e33b572	0.17549685
7	0xbd2c0e88	-0.042006046
8	0x3c2ec149	0.0106662
9	0xbd373634	-0.044729427
10	0x3d943786	0.07237153
11	0x3ed3c80a	0.41363555
12	0xbda5864d	-0.080822565
13	0x3d8aee3d	0.067837216
14	0x3e22ff62	0.15917733
15	0xbe06e443	-0.13173012
16	0xbda49864	-0.08036879
17	0xbc8d47f1	-0.017246218
18	0xbd6f1149	-0.058366094
19	0x3e3d8931	0.18509366
20	0x3c96a7bf	0.018390534
21	0x3e7f825b	0.2495207
22	0xbe753e48	-0.2394954
23	0xbe5e8400	-0.21730042
24	0xbdc66dcf	-0.09688913
25	0x3dc37fab	0.09545835
26	0x3dd36298	0.1032154
27	0xbe24535c	-0.16047424
28	0x3f230d3a	0.6369206
29	0x3ea2d1fc	0.3180083
30	0xbde0b6d8	-0.10972375
31	0x3e27735c	0.163526
32	0x3e5b7087	0.21429645
33	0xbd4c4c59	-0.0498775
34	0x3f06b887	0.52625316
35	0xbdbc02bb	-0.09180208
36	0x3d6bb50e	0.057545714
37	0xbca39bb1	-0.0199717
38	0x3d426047	0.0474551
39	0x3dbe347c	0.09287354
40	0xbde4e756	-0.11176936
41	0xbb4670b7	-0.0030279586
42	0x3da0f628	0.078594506
43	0xbd286279	-0.041109536
44	0x3e65128b	0.22370355
45	0xbd83bdc6	-0.06432681
46	0x3dafb125	0.085787095
47	0x3e8bc5c7	0.2729933
48	0xbd05de6b	-0.032682817
49	0x3e04e604	0.12978369
50	0x3e2febef	0.17179845
51	0xbe079268	-0.13239443
52	0xbd25b965	-0.04046001
53	0xbdd984ae	-0.1062101
54	0x3da2f9fa	0.079578355
55	0x3e00d714	0.12582046
56	0x3ec780b6	0.38965386
57	0x3d9c313d	0.07626579
58	0x3ed26c58	0.41098285
59	0x3f12d7e4	0.5736067
60	0x3e34d08f	0.17657684
61	0xbd74524b	-0.059648793
62	0xbdab3418	-0.083595455
63	0xbdae1e6c	-0.08501896

fc3.weight f4 [32, 64]
0	0x3ebb64ed	0.36600438
1	0x3dd470ad	0.10373054
2	0x3d207929	0.039178047
3	0x3d53ba2e	0.051691227
4	0xbeb10347	-0.34572813
5	0x3e8a2d21	0.26987556
6	0x3d30331e	0.0430175
7	0xbea9a52f	-0.33133838
8	0x3f689b41	0.908619
9	0x3ae2f111	0.0017314275
10	0x3e3298d7	0.17441116
11	0x3cf28703	0.029605394
12	0x3e96f6d9	0.29485205
13	0xbe90d173	-0.28284797
14	0xbe2c50c1	-0.1682768
15	0x3d6e355a	0.05815635
16	0xbd09882b	-0.033577126
17	0xbe4bbe64	-0.19896847
18	0xbdc7f035	-0.09762613
19	0x3c26abff	0.010172843
20	0x3eb485ef	0.35258433
21	0x3dbb6e06	0.09151845
22	0x3eb8273a	0.35967427
23	0xbe67f5dd	-0.22652383
24	0x3e7f53b4	0.24934274
25	0xbc986109	-0.018600957
26	0x3ecd2c39	0.40072802
27	0xbf997d48	-1.1991358
28	0x3c669a03	0.014074805
29	0xbe82ce59	-0.25548056
30	0xbf232585	-0.63729125
31	0xbeac3cf5	-0.33640257
32	0xbf16d6ed	-0.589217
33	0x3eb6b1ed	0.35682622
34	0xbdb368f3	-0.08760252
35	0xbd75e91a	-0.060036756
36	0x3e351d0b	0.1768686
37	0x3e230751	0.1592076
38	0x3e08a805	0.13345344
39	0x3ae115bd	0.0017172616
40	0x3e2531d6	0.16132292
41	0x3df5819b	0.11987611
42	0x3d54b284	0.05192806
43	0xbed63f9a	-0.418454
44	0xbdd780d2	-0.105226174
45	0xbf02f8ff	-0.5116119
46	0xbe281ad8	-0.1641649
47	0x3e41aea0	0.1891427
48	0xbe476de9	-0.19475521
49	0x3f2d81f7	0.67776436
50	0x3c6172df	0.013760298
51	0xbe86f3ab	-0.2635778
52	0xbec68841	-0.38775828
53	0x3df2c0e1	0.11853195
54	0xbed59b6a	-0.41720134
55	0x3e740332	0.23829344
56	0x3de7c03f	0.11315965
57	0x3e3afd37	0.18260656
58	0x3deb85e7	0.11500149
59	0xbdaa2de4	-0.08309534
60	0xbe7c33eb	-0.2462918
61	0xbe23a383	-0.15980344
62	0x3d5f7316	0.054553114
63	0xbd23224c	-0.03982763
64	0x3d0b2108	0.033967048
65	0xbd92af4f	-0.07162344
66	0x3e236e8a	0.15960136
67	0x3ca380cc	0.019958876
68	0x3e51b714	0.20479995
69	0x3d306c55	0.043072063
70	0x3e6e7d3e	0.23289964
71	0xbe18a942	-0.14908317
72	0xbf060957	-0.52358
73	0x3c3f202c	0.011665385
74	0xbd954e5a	-0.07290335
75	0xbded224a	-0.11578806
76	0xbd2a797d	-0.041619767
77	0xbdd07cf3	-0.10180082
78	0x3d55aa7b	0.052164536
79	0xbe5f05c0	-0.21779537
80	0x3daf0913	0.08546653
81	0x3d988582	0.074473396
82	0x3d66992b	0.056298416
83	0xbe79ccec	-0.24394578
84	0x3e3f2c94	0.18669349
85	0x3c31dde8	0.010856129
86	0xbe90a34d	-0.2824959
87	0xbe5d5ab7	-0.21616636
88	0x3e1bc098	0.15210187
89	0x3d9aa68b	0.07551297
90	0xbec71356	-0.3888194
91	0xbf2fc5f1	-0.6866141
92	0xbd6d0f74	-0.057876065
93	0xbdd22236	-0.102604315
94	0xbd215e15	-0.039396364
95	0x3e9151f4	0.28382838
96	0xbdf586e2	-0.119886175
97	0x3df65e17	0.12029665
98	0xbd5d513d	-0.054032553
99	0x3ea5111e	0.32239622
100	0x3e847501	0.25870517
101	0x3e3a6c3d	0.18205352
102	0xbed5ade4	-0.4173423
103	0xbf155767	-0.5833649
104	0x3d73090f	0.05933481
105	0xbd2d7974	-0.042352155
106	0xbe3c2db5	-0.18376811
107	0x3cb109d4	0.021611132
108	0xbde740bc	-0.11291644
109	0x3e19a506	0.15004358
110	0x3dbcfcf7	0.09227937
111	0xbdbe4ae8	-0.09291631
112	0xbee655d4	-0.44987357
113	0x3dbefa06	0.09325032
114	0xbd98a186	-0.07452683
115	0xbe3ae4c2	-0.18251327
116	0xbefb5528	-0.49088407
117	0x3ea7cab7	0.32771847
118	0x3e2cb31b	0.16865198
119	0xbd844231	-0.064579375
120	0xbcafe607	-0.02147199
121	0x3db3dd38	0.087824285
122	0xbd41c8af	-0.047310527
123	0x3da534c0	0.08066702
124	0xbe622144	-0.22083002
125	0xbd2e97f9	-0.0426254
126	0xbda10055	-0.078613915
127	0x3d8987a8	0.067153275
128	0x3e5e3f2a	0.21703783
129	0xbf9cde6f	-1.2255381
130	0xbb8a5357	-0.0042213607
131	0x3d1715ca	0.036886014
132	0xbe1b6bf0	-0.15177894
133	0x3e0a864c	0.13527793
134	0xbe1c6e01	-0.15276338
135	0xbde85a82	-0.11345388
136	0xbe1105b0	-0.14162326
137	0xbf828a3b	-1.0198435
138	0xbedc21c9	-0.42994526
139	0xbc818467	-0.015810205
140	0x3e8cfe33	0.2753769
141	0xbe01808f	-0.12646697
142	0x3e5bacfb	0.21452706
143	0x3f4b8a1f	0.7950763
144	0xbda65d79	-0.08123297
145	0x3e80a458	0.25125384
146	0xbe895942	-0.2682591
147	0x3e0c72e5	0.13715704
148	0xbe1aa3dd	-0.15101571
149	0x3d5ceed3	0.053938698
150	0x3de43c96	0.11144368
151	0x3f102cc0	0.56318283
152	0xbf158c45	-0.5841716
153	0x3e216f28	0.15765059
154	0xbfb12e2c	-1.3842216
155	0xbfb9df63	-1.4521297
156	0xbd5b6e55	-0.053572018
157	0x3db3769d	0.08762858
158	0xbf66ce9e	-0.9015902
159	0x3db25b9f	0.087088816
160	0x3e808051	0.25097898
161	0xbee2b174	-0.4427601
162	0xbd8a69cd	-0.06758461
163	0xbd28c9ad	-0.041207958
164	0xbeabb777	-0.3353841
165	0x3e1dc2bc	0.15406317
166	0x3e4992b1	0.19684865
167	0xbc243042	-0.010021271
168	0x3e2690d0	0.16266179
169	0xbea3d60c	-0.31999242
170	0x3cdb031c	0.026734881
171	0xbf177df2	-0.5917655
172	0xbb3e4400	-0.002903223
173	0x3f3dddec	0.7416675
174	0x3db8e70d	0.090284444
175	0x3c1d0992	0.009584801
176	0xbba17ebd	-0.0049284385
177	0x3e0abf9b	0.13549654
178	0x3e96e2de	0.2946996
179	0x3c5db3d9	0.013531649
180	0x3f0d92d0	0.55302143
181	0xbf799095	-0.9748624
182	0x3d1f168c	0.03883986
183	0xbf0ecc8e	-0.55780876
184	0x3e7a047d	0.24415775
185	0x3dc1cd01	0.094629295
186	0xbdef5d89	-0.11687762
187	0x3e365ba6	0.17808399
188	0xbe889c12	-0.26681572
189	0x3d3eae65	0.046553034
190	0x3d7a0fe8	0.061050326
191	0x3dd68113	0.10473838
192	0xbd9edde3	-0.07757165
193	0xbdb5abf9	-0.08870692
194	0x3e43f1b7	0.19135176
195	0xbe44e94f	-0.19229625
196	0xbcf29a31	-0.02961454
197	0xbd9c20a3	-0.076234125
198	0x3dbcb52a	0.09214242
199	0xbe0389ae	-0.1284549
200	0xbd80515a	-0.062655166
201	0xbe851892	-0.25995308
202	0xbe83add4	-0.25718558
203	0x3d34dc0f	0.044155177
204	0xbedd51f7	-0.43226597
205	0xbdf14a32	-0.1178173
206	0xbe85ee37	-0.26158306
207	0xbf01578f	-0.5052423
208	0x3df81b52	0.12114586
209	0x3d37e9d9	0.04490075
210	0xbe26e8cf	-0.16299747
211	0xbe7aca17	-0.24491154
212	0x3c405145	0.011738126
213	0x3d9ef72e	0.077619895
214	0x3dbc9049	0.09207208
215	0x3db749f5	0.08949653
216	0x3e497165	0.19672163
217	0x3d2e3f76	0.04254099
218	0xbe1e3d58	-0.15453088
219	0xbdea8620	-0.114513636
220	0xbd11fa30	-0.035638988
221	0xbde989c5	-0.114032306
222	0xbe864211	-0.2622228
223	0x3df0eb5e	0.11763643
224	0xbd2bbff2	-0.0419311
225	0xbda247a7	-0.07923823
226	0xbd8c2841	-0.06843615
227	0x3e6e54ad	0.23274489
228	0x3da23707	0.07920652
229	0xbe356850	-0.17715573
230	0xbd316e7d	-0.04331826
231	0x3e48bef8	0.19604099
232	0xbd18c083	-0.03729297
233	0x3db2426a	0.08704074
234	0xbce42eb4	-0.027854301
235	0x3d98c728	0.07459861
236	0xbdbf4a90	-0.093403935
237	0xbaaa858d	-0.0013009772
238	0xbd833e79	-0.064084
239	0x3d484be2	0.048900492
240	0xbdfc6168	-0.12323266
241	0xbeffda06	-0.49971026
242	0xbcc7173b	-0.02430307
243	0x3e3e9883	0.18612866
244	0xbf191ae0	-0.59806633
245	0xbdbe9126	-0.093050286
246	0x3d8d35ed	0.06895051
247	0x3d848d88	0.064723074
248	0xbd913f73	-0.0709218
249	0x3ec31a0c	0.3810581
250	0xbc9898d2	-0.018627558
251	0x3daf4543	0.085581325
252	0xbd83c78c	-0.06434545
253	0xbe82c557	-0.25541183
254	0x3db3df91	0.08782876
255	0x3dd156ab	0.10221609

fc3.bias f4 [32]
0	0x3e44256a	0.19154897
1	0x3f0895f5	0.53353816
2	0xbea6e0a5	-0.32593265
3	0x3f03ec71	0.51532656
4	0x3f41e0af	0.75733465
5	0x3e508f4b	0.20367162
6	0x3f5d6645	0.86484176
7	0xbde843e1	-0.11341072
8	0x3f5a627f	0.85306543
9	0xbcaf0b55	-0.021367708
10	0x3f169312	0.5881816
11	0x3eae5043	0.3404561
12	0xbddc5bdd	-0.10759709
13	0x3e41cfa2	0.18926862
14	0x3e1b6d32	0.15178373
15	0xbcda0010	-0.026611358
16	0x3ee107a4	0.43951142
17	0xbe000041	-0.12500097
18	0x3da0e43d	0.07856033
19	0xbd8ea833	-0.06965675
20	0x3f17fd8d	0.5937126
21	0x3f212c57	0.6295828
22	0x3e360e8a	0.17778984
23	0xbeb97555	-0.3622233
24	0x3f312f39	0.6921268
25	0xbc9b82a8	-0.0189832
26	0x3e5b0c88	0.21391499
27	0xbde45a64	-0.11150053
28	0x3f4f8a09	0.8107
29	0xbe4b67a1	-0.1986375
30	0x3eb6292a	0.3557828
31	0x3e2761e8	0.16345942

fc4.weight f4 [4, 32]
0	0x3edbf07f	0.4295692
1	0x3e8bf911	0.2733846
2	0xbe3f819b	-0.18701784
3	0x3df08351	0.117437966
4	0x3ec382c7	0.38185713
5	0x3e64245f	0.222795
6	0x3e9b1f78	0.30297446
7	0x3ccc0a5e	0.024907287
8	0x3ea04704	0.3130418
9	0xbb9e5c58	-0.0048327856
10	0x3e2b9fbf	0.16760157
11	0x3e84753c	0.25870693
12	0x3e08c4b8	0.13356292
13	0xbcee537d	-0.029092545
14	0x3e022204	0.12708288
15	0xbfcd37c1	-1.603264
16	0x3e13a5d7	0.14418732
17	0x3e1b2544	0.15150934
18	0xbd27c534	-0.040959552
19	0xbd82b52f	-0.06382214
20	0x3e93af5a	0.2884472
21	0x3e96eb7f	0.29476544
22	0x3e97d9e9	0.2965844
23	0xbe6a20cd	-0.22864075
24	0x3e96429f	0.29347703
25	0xbd64074c	-0.05567102
26	0x3dfe1646	0.12406592
27	0xbc5651f0	-0.013081059
28	0x3e821695	0.25407854
29	0xbe87b3ba	-0.26504308
30	0x3e8a3648	0.26994538
31	0xbf9a91d7	-1.2075757
32	0x3eb59124	0.35462296
33	0x3eb88239	0.36036852
34	0xbe032869	-0.12808384
35	0x3e4152c1	0.18879224
36	0x3e28cc1f	0.16484116
37	0x3e6302f4	0.22169095
38	0x3ecd5b8b	0.40108904
39	0x3c5da909	0.013529071
40	0x3eefd026	0.46838492
41	0x3e4b7455	0.19868596
42	0x3e0aa919	0.13541068
43	0x3e79b3bc	0.2438497
44	0xbe0aa547	-0.13539611
45	0x3dc59377	0.09647267
46	0xbe96aefd	-0.2943038
47	0x3e678eb6	0.22613034
48	0x3e109e41	0.14122869
49	0x3cd723b6	0.026262145
50	0xbd8c3e94	-0.06847873
51	0xbd782a2c	-0.060587093
52	0x3e9d9121	0.30774787
53	0x3e334d3b	0.1750993
54	0x3e4ce7be	0.20010278
55	0xbe49f534	-0.19722444
56	0x3e2522a4	0.16126496
57	0xbc90be20	-0.017668784
58	0x3e7d8274	0.24756795
59	0x398c1600	0.00026719272
60	0x3eae7700	0.34075165
61	0x3e5d78b6	0.21628079
62	0x3ea153fc	0.31509387
63	0xbf08a0d7	-0.5337042
64	0xbda979d2	-0.082751885
65	0x3e47ac8a	0.19499412
66	0xbe986088	-0.29761147
67	0x3e5cb9fd	0.21555324
68	0x3e8fb1ce	0.28065342
69	0x3ebc5334	0.3678223
70	0x3eb58672	0.35454136
71	0xbd1f707f	-0.038925644
72	0x3eb4c3b2	0.35305554
73	0x3e764f84	0.2405377
74	0x3e11a5c2	0.14223388
75	0x3e6e9a57	0.23301063
76	0x3e0ba0e0	0.13635588
77	0xbe825c5b	-0.25461087
78	0x3e9458bc	0.2897395
79	0xbfddaa44	-1.7317586
80	0x3e464dd4	0.19365627
81	0x3cb53e94	0.022124566
82	0x3e08404a	0.13305774
83	0x3dd18e30	0.10232198
84	0xbb24b1ef	-0.002513047
85	0x3e2b49e4	0.16727406
86	0xbd36f931	-0.04467124
87	0xbe258663	-0.16164546
88	0x3eac1b0c	0.33614385
89	0x3ef51021	0.47863868
90	0xbe90c861	-0.28277877
91	0xbe1c0d09	-0.15239348
92	0x3ec185b1	0.3779731
93	0xbc9d9bd6	-0.019239347
94	0xbd3ecb2a	-0.04658047
95	0xbf803731	-1.0016843
96	0x3eb37ddc	0.3505696
97	0x3df2aa4c	0.11848888
98	0xbea0c7b6	-0.31402367
99	0x3e2979da	0.16550389
100	0x3e4d6092	0.2005637
101	0x3e2c9c5a	0.16856518
102	0x3ec4e1a6	0.38453406
103	0xbde710cd	-0.11282501
104	0x3e88296c	0.26594102
105	0x3c4d0294	0.012512822
106	0x3ec973ef	0.39346263
107	0xbd7d8918	-0.06189832
108	0x3d4b99bb	0.049707156
109	0x3dca078f	0.09864723
110	0x3e6cda2a	0.23130098
111	0xbfc7e02c	-1.5615287
112	0x3ee82212	0.45338494
113	0x3cb96380	0.022630453
114	0x3e43e4d9	0.19130267
115	0xbebc25f0	-0.36747694
116	0x3e9c18e6	0.30487746
117	0x3e613c0d	0.21995564
118	0x3e403292	0.18769291
119	0xbef7da9e	-0.4840898
120	0x3e4a1b85	0.1973706
121	0x3e8582b7	0.2607629
122	0xbd4815af	-0.048848804
123	0x3dbd2b86	0.09236817
124	0x3ea944fd	0.33060446
125	0x3e010ebf	0.12603281
126	0x3eb391ab	0.35072073
127	0xbf444d38	-0.76680326

fc4.bias f4 [4]
0	0x3f015dd1	0.5053378
1	0x3e9d0a52	0.30671936
2	0x3f1129ea	0.5670458
3	0x3f0ad786	0.5423511
